src/pleaseland/onnx_models/DroneLanding-legacykrac2023.onnx (onnx, 542355 bytes, 12 tensors)

48 f4 [6]
0	0x3e428b89	0.18998541
1	0x3eb77678	0.35832572
2	0x3e28b1bf	0.16474055
3	0x3f79b41c	0.9754045
4	0x402b12a0	2.6730118
5	0x3f5d771c	0.8650987

action_model._continuous_distribution.log_sigma.bias f4 [3]
0	0xbf340a25	-0.7032798
1	0xbf2a99ec	-0.66641116
2	0xbfa33e8f	-1.2753466

action_model._continuous_distribution.log_sigma.weight f4 [3, 256]
0	0xbd66eb89	-0.056376968
1	0x3eee3f4d	0.4653267
2	0x3bdac68b	0.0066765
3	0xbc5d380b	-0.013502131
4	0xbcefe5cf	-0.029284386
5	0x3bc71497	0.0060754525
6	0x3eeaeb21	0.45882514
7	0x3cad8070	0.021179408
8	0xbd74f599	-0.059804533
9	0x3ddf9e7f	0.109189026
10	0x3d28a475	0.041172463
11	0x3a32cc47	0.0006820601
12	0xbe1f3e4e	-0.15551111
13	0x3d2fce0f	0.042921122
14	0x3c13b829	0.009016075
15	0xbd6a4bb5	-0.057201106
16	0xbd87974c	-0.066206545
17	0xbc2a1113	-0.010380047
18	0xbbb08020	-0.0053863674
19	0x3c941c8d	0.01808002
20	0x3e7d9111	0.2476237
21	0x3e84aa77	0.25911304
22	0x3cbac3a4	0.022798367
23	0x3ca80628	0.020510748
24	0xbbf62327	-0.0075115147
25	0xbcc12678	-0.023577914
26	0xbe7d3a23	-0.24729209
27	0xbdab86a5	-0.08375291
28	0xbcadc287	-0.021210922
29	0x3c860074	0.016357638
30	0xbc335f13	-0.01094796
31	0xbe020c29	-0.12699951
32	0xbd49f3b4	-0.04930468
33	0xbd2f614d	-0.042817403
34	0x3ec72d16	0.38901585
35	0x3c67c00a	0.014144907
36	0xbd86190f	-0.06547748
37	0x3c87a59c	0.01655846
38	0xbb1c08d7	-0.002380898
39	0xbe822043	-0.2541524
40	0x3e66ac45	0.22526653
41	0x3ca86a00	0.020558357
42	0xbd0345b7	-0.032048907
43	0xbbd06fe0	-0.006360993
44	0x3c992f43	0.018699294
45	0xbc2b09a4	-0.01043931
46	0x3d3e1483	0.04640628
47	0x3e92dd8e	0.28684658
48	0x3d71318b	0.05888514
49	0x3c246bd6	0.010035476
50	0xbcd15886	-0.025554907
51	0x3c8d5195	0.017250815
52	0xbcc52473	-0.024065232
53	0xbe405417	-0.18782078
54	0x3ce81a58	0.028332874
55	0x3ea73d2a	0.32663852
56	0xbe847344	-0.2586919
57	0x3cabcb81	0.020971062
58	0x3d69fa2a	0.05712334
59	0xbdd316ef	-0.103071086
60	0xbe1aa944	-0.15103632
61	0xbe2c5ae4	-0.16831547
62	0xbd592edc	-0.053023204
63	0xbd672d7c	-0.05643986
64	0xbebf7c2e	-0.3739943
65	0x3dd88857	0.1057288
66	0x3d42f58d	0.047597457
67	0x3df69fad	0.120421745
68	0xbcce424c	-0.025178097
69	0x3dd6c94a	0.104876116
70	0x3c5b3048	0.01337821
71	0x3bb29086	0.0054493574
72	0x3d6aa0a8	0.05728212
73	0x3bf53485	0.0074830675
74	0xbbeca0a1	-0.007221297
75	0xbce84456	-0.028352898
76	0x3ddcd321	0.10782457
77	0xbe426573	-0.18984012
78	0x3daccdfe	0.084377274
79	0x3d8973d0	0.067115426
80	0xbd772eda	-0.060347416
81	0xbcb6eb02	-0.022328857
82	0x3d73d378	0.059527844
83	0xbbc94020	-0.0061416775
84	0xbd62b78b	-0.05535082
85	0xbd6a15ef	-0.057149824
86	0x3dc43b7c	0.09581658
87	0x3d595458	0.053058952
88	0x3bd656d9	0.0065411148
89	0xbc541cb6	-0.012946298
90	0xbdc53695	-0.09629551
91	0x3b23e4e7	0.0025008263
92	0xbdafe2da	-0.085881904
93	0xbd8f0fb8	-0.0698542
94	0xbe91ffcb	-0.28515467
95	0xbd927eaa	-0.071530655
96	0xbce8a2d2	-0.028397951
97	0xbc33f5e7	-0.010983921
98	0x3da050fc	0.078279465
99	0xba1e2c55	-0.00060338277
100	0xbc7922db	-0.015206064
101	0x3b9880c9	0.0046540243
102	0x3cac0aac	0.021001182
103	0x3d968a41	0.073505886
104	0xbbfe23f4	-0.007755751
105	0xbcc57396	-0.024102967
106	0xbd0eeab4	-0.0348918
107	0x3d5660c0	0.05233836
108	0x3de48703	0.11158564
109	0xbed9e438	-0.4255693
110	0x3e1be8b4	0.15225488
111	0x3d2f23da	0.0427588
112	0xbc8088e1	-0.015690269
113	0xbb4a6a61	-0.003088616
114	0x3e93c8b6	0.28864068
115	0x3db492cb	0.08817061
116	0xbe126bd1	-0.14298941
117	0xbc8c8d1f	-0.017157136
118	0x3c576177	0.013145796
119	0x3e83d796	0.25750417
120	0xbd53111b	-0.051529985
121	0x3d6e70f7	0.0582132
122	0xbdc57160	-0.09640765
123	0x3c66361e	0.0140509885
124	0xbda876bb	-0.08225771
125	0x3d61596b	0.055016916
126	0x3c9cbdf7	0.019133551
127	0xbd894af5	-0.0670375
128	0xbe4a1160	-0.1973319
129	0xbd20be00	-0.039243698
130	0xbd2dd448	-0.042438775
131	0xbc81627a	-0.015794028
132	0xbe77d3cd	-0.2420189
133	0x3b8bb518	0.0042635314
134	0x3e39566b	0.18099372
135	0x3ccf3e1f	0.025298176
136	0x3c3fced4	0.0117070265
137	0xbd6188d6	-0.055062138
138	0x3c8711d4	0.016487993
139	0x3d85dce9	0.06536276
140	0x3d6f7392	0.058459826
141	0xbf091c1e	-0.5355853
142	0x3bf28b53	0.0074018626
143	0xbcd56657	-0.026049776
144	0xbdb89a28	-0.09013778
145	0x3e05628b	0.13025872
146	0xbd050ec5	-0.03248479
147	0x3c9a2e9f	0.018821059
148	0x3d55560a	0.052084006
149	0xbd17e422	-0.0370828
150	0x3d192dfe	0.037397377
151	0x3eb95d2f	0.36203906
152	0xbc891b84	-0.016736753
153	0x3f598c1c	0.84979415
154	0x3e09038d	0.13380261
155	0xbbbe09df	-0.0057995166
156	0x3c1d7a68	0.009611703
157	0xbd43fc90	-0.047848284
158	0xbd8e59d8	-0.0695073
159	0xbd12608d	-0.03573661
160	0xbcb1d0be	-0.021705981
161	0xbe234137	-0.15942846
162	0x3e01f36f	0.12690519
163	0xbccbb8a6	-0.02486832
164	0x3c7ff681	0.015622736
165	0x3cb43124	0.021996088
166	0xbd4e10bc	-0.050308928
167	0x3c0ed9ce	0.008718921
168	0x3ba688b2	0.0050822133
169	0xbd0edb09	-0.034876857
170	0x3da70e7c	0.081570596
171	0x3d665228	0.056230694
172	0x3b8156a6	0.003947097
173	0x3cdf5cfe	0.027266022
174	0x3d20ff20	0.039305806
175	0x3d9dba6e	0.07701574
176	0xbd254efe	-0.040358536
177	0xb9771bb5	-0.00023566077
178	0x3d2b87fa	0.041877724
179	0x3ab1b238	0.0013557142
180	0xbbd243d1	-0.0064167758
181	0x3da44afc	0.08022115
182	0x3bbb7d7d	0.0057217465
183	0x3baac997	0.0052120197
184	0x3d9c6da4	0.076381
185	0xbcf6a62d	-0.030108536
186	0x3c20766a	0.009793857
187	0xbe2a61c3	-0.16638856
188	0x3d2dd786	0.042441867
189	0x3f42b6ab	0.7605998
190	0x3ed629f8	0.41828895
191	0xbcc751f8	-0.024331078
192	0xbcda5bbe	-0.026655074
193	0x3c0e38da	0.008680547
194	0xbec81d22	-0.39084727
195	0x3c7bd05d	0.015369502
196	0xbd43d11e	-0.04780685
197	0x3d1cbbc2	0.038264997
198	0x3e02d8ae	0.12777969
199	0xbd2a17a9	-0.04152647
200	0xbc2ae702	-0.010431053
201	0x3d33b86d	0.043877054
202	0x3cdd7fa3	0.027038401
203	0xbe93515b	-0.28773007
204	0x3d92fd9e	0.0717728
205	0x3c170a0f	0.009218707
206	0x3dd9f5c3	0.106425785
207	0xbb24ce4c	-0.0025147377
208	0x3c458077	0.012054554
209	0x3cb41c23	0.021986073
210	0x3d39a29b	0.04532109
211	0x3cb0413b	0.02151548
212	0xbd815459	-0.06314916
213	0x3caab2c7	0.0208372
214	0x3cf14dc4	0.029456027
215	0x3ea4bd56	0.32175702
216	0xbd00286f	-0.03128856
217	0x3ce017f2	0.027355168
218	0x3d8c17a2	0.06840445
219	0x3d71a77b	0.058997612
220	0x3d585b2e	0.05282133
221	0xbdd9fba8	-0.10643703
222	0x3c7450d6	0.014911851
223	0x3cc4037a	0.023927439
224	0x3d7bceb1	0.061476413
225	0x3c9d969d	0.019236857
226	0x3dc31330	0.09525144
227	0xbd32886c	-0.043587133
228	0xbc208598	-0.009797476
229	0x3d3bca58	0.045847267
230	0x3d3702bf	0.044680353
231	0x3cd1e919	0.025623845
232	0xbd117ca5	-0.03551926
233	0x3e03cfb5	0.12872203
234	0x3dffb5ab	0.12485822
235	0x3bdc08f0	0.0067149326
236	0x3dcbbb70	0.0994786
237	0x3ce18208	0.027527824
238	0xbceee5c8	-0.029162303
239	0xbd119484	-0.035542026
240	0x3d5a34c4	0.053272977
241	0x3d14cc81	0.036327843
242	0x3d8c896d	0.068621494
243	0xbda6da58	-0.081471145
244	0x3cd08b22	0.025456969
245	0xbec564d5	-0.3855349
246	0xbce0bcfb	-0.027433863
247	0xbe8adb1f	-0.271203
248	0x3aec6b40	0.0018037334
249	0x3e4e4640	0.20143986
250	0x3d6de817	0.058082666
251	0x3bef5de2	0.007304893
252	0x3cc36f39	0.023856746
253	0x3c52e239	0.0128713185
254	0xbdbf4e63	-0.09341123
255	0x3ce974b6	0.028498035

action_model._continuous_distribution.mu.bias f4 [3]
0	0xbc46b74c	-0.012128662
1	0xbc1f3efd	-0.009719607
2	0xbe0d0bb4	-0.13773996

action_model._continuous_distribution.mu.weight f4 [3, 256]
0	0x3ac4c3d7	0.0015011978
1	0xbc96324c	-0.01833453
2	0x3d50bf18	0.05096349
3	0x3c7be5e0	0.015374631
4	0x3e4f695c	0.20255035
5	0x3d1acd06	0.03779318
6	0xbe73a6ea	-0.23794141
7	0xbdbe85ea	-0.09302886
8	0x3cd70ba8	0.026250675
9	0x3e4aa815	0.1979068
10	0x3c44eb41	0.0120189795
11	0xbe0bad02	-0.13640216
12	0x3bbe6e5d	0.005811496
13	0xbd8cd7c7	-0.06877094
14	0xbd9276db	-0.07151576
15	0x3e258e95	0.16167672
16	0x3e8a359d	0.2699403
17	0x3e00f60a	0.12593856
18	0x3c737df1	0.01486157
19	0x3dc2ac1b	0.09505483
20	0xbdac6128	-0.084169686
21	0x3da8acbe	0.08236073
22	0xbe45de67	-0.19323121
23	0xbd9129c5	-0.07088045
24	0x3d9e189c	0.077195376
25	0xbd942803	-0.07234194
26	0x3d5a7435	0.05333348
27	0xbe97b516	-0.29630345
28	0x3c9c3e3b	0.019072643
29	0xbdd173c5	-0.102271594
30	0xbd642e91	-0.05570847
31	0xbac62c63	-0.001511943
32	0x3dd4996b	0.10380825
33	0x3e79de28	0.24401152
34	0x3c73bd58	0.014876686
35	0x3e871b50	0.26388025
36	0x3f123223	0.5710775
37	0xbd4f774a	-0.050650872
38	0xbd2dfaee	-0.042475633
39	0xbec623af	-0.386991
40	0xbe99adc0	-0.30015373
41	0xbba4d290	-0.005029984
42	0x3d026a1e	0.031839482
43	0xbb85b4d9	-0.0040803966
44	0x3cb74229	0.022370415
45	0xbd8e9bf4	-0.069633394
46	0x3e1a1f1a	0.15050927
47	0x3ec0e89f	0.37677476
48	0xbd774adc	-0.060374126
49	0x3e1d4e22	0.15361837
50	0x3e64c2d5	0.22339948
51	0xbca95534	-0.02067051
52	0xbc9f815f	-0.019470869
53	0x3ecde104	0.40210736
54	0xbdae75c8	-0.08518559
55	0x3c92aa7f	0.017903564
56	0xbec4e081	-0.38452533
57	0xbcd1b114	-0.025597133
58	0x3df1418b	0.117800795
59	0x3e0c86a8	0.13723242
60	0x3e760e35	0.24028857
61	0xbe8a0fbd	-0.26965132
62	0xbd4c165a	-0.049826004
63	0x3d278e5f	0.04090726
64	0xbd380106	-0.04492285
65	0x3e530864	0.2060867
66	0x3e0fba4e	0.14035913
67	0xbd7ba77a	-0.061439015
68	0x3d42d803	0.047569286
69	0x3e2f8368	0.17139971
70	0xbd76134c	-0.060076997
71	0xbdd464b2	-0.103707686
72	0xbd49a6a4	-0.049231187
73	0xbe5fa33d	-0.21839614
74	0x3c592e65	0.01325569
75	0x3db2bf94	0.08727947
76	0x3d4b2bf0	0.04960245
77	0x3dedc40e	0.1160966
78	0x3d7809de	0.060556285
79	0x3e4b6f0a	0.19866577
80	0xbded2de4	-0.115810186
81	0xbd80cd35	-0.0628914
82	0xbd56c9d3	-0.05243857
83	0x3d386852	0.045021363
84	0xbdb3a488	-0.08771616
85	0xbad641ca	-0.0016346511
86	0x3e56d95e	0.20981357
87	0xbddb7407	-0.1071549
88	0x3c52defb	0.0128705455
89	0xbdb6eab5	-0.089314856
90	0x3e4df6ad	0.2011363
91	0xbd5ddc04	-0.0541649
92	0x3d71b616	0.05901154
93	0xbe481cae	-0.1954219
94	0xbd1bab01	-0.03800488
95	0xbeaf31f5	-0.34217802
96	0xbe249c74	-0.16075307
97	0xbdc418af	-0.095750205
98	0xbd908ba1	-0.07057882
99	0xbd2bb555	-0.04192098
100	0x3e7b79fb	0.2455825
101	0x3e580525	0.21095712
102	0x3d2d7e3e	0.042356722
103	0x3d8c0b77	0.06838124
104	0xbcbc23d0	-0.022966295
105	0x3d411441	0.047138456
106	0xbc2b2d1a	-0.010447765
107	0x3e2a896e	0.16653988
108	0x3ca9e604	0.020739563
109	0x3e243764	0.16036755
110	0x3d870d89	0.065943785
111	0xbd425c5c	-0.047451362
112	0x3dd13c0b	0.102165304
113	0xbecb4a2a	-0.3970502
114	0xbe61194f	-0.2198231
115	0xbe7ca202	-0.24671176
116	0x3eb8053d	0.35941496
117	0xb9460296	-0.00018883715
118	0x3d6c840c	0.057743117
119	0xbcdd303f	-0.027000545
120	0x3da0687b	0.07832428
121	0x3b7b7ee3	0.003837519
122	0xbe2c3d7c	-0.1682033
123	0x3db08e91	0.086209424
124	0xbe459d52	-0.19298294
125	0x3dcb94dc	0.09940502
126	0x3a3aac28	0.000712099
127	0xbbb88d58	-0.005632084
128	0x3e666a8e	0.22501585
129	0xbf28fa5c	-0.6600702
130	0xbb27256d	-0.0025504485
131	0xba4c2c61	-0.00077885954
132	0x3e4adcae	0.19810745
133	0xbd1a8171	-0.0377211
134	0xbc0e123b	-0.008671339
135	0xbc21d115	-0.009876509
136	0xbcd00a25	-0.025395462
137	0xbc858c5c	-0.01630228
138	0xbd7d611e	-0.061860196
139	0x3ceac06f	0.028656213
140	0xbe55a9ab	-0.20865504
141	0x3e61d6d5	0.22054608
142	0xbd8d9ea3	-0.06915023
143	0xbca492dc	-0.02008956
144	0x3e0e06b0	0.13869739
145	0xbe2c640f	-0.16835044
146	0xbe36dedd	-0.17858453
147	0x3d7d168a	0.061789073
148	0xbda2001a	-0.079101756
149	0xbe3b4513	-0.18288068
150	0xbd87cad2	-0.06630482
151	0xbeb5f85e	-0.35541052
152	0xba9da3b9	-0.0012026943
153	0x3e0e0595	0.13869317
154	0xbe483fe4	-0.19555622
155	0x3c8904b0	0.016725868
156	0x3a9264ec	0.0011168993
157	0xbe29d660	-0.16585684
158	0x3aaaae12	0.0013021848
159	0xbddcc053	-0.107788704
160	0xbc573350	-0.013134792
161	0xbd199eb0	-0.03750485
162	0xbb0d9d9d	-0.0021608837
163	0x3df30632	0.11866416
164	0xbc34c079	-0.011032217
165	0x3e301e83	0.1719914
166	0x3dd101d9	0.102054305
167	0x3d0b3824	0.033989087
168	0xbe41d854	-0.18930179
169	0x3b3cd07f	0.0028810797
170	0x3d7bb257	0.061449375
171	0xbd7d5c56	-0.061855637
172	0x3d983a19	0.07432956
173	0x3ced2367	0.028947545
174	0xbe168eaa	-0.1470286
175	0x3e713712	0.23556164
176	0xbcd4d583	-0.025980717
177	0x3d77a05d	0.06045567
178	0xbdaea617	-0.08527773
179	0xbd71879d	-0.05896722
180	0xbd5e0768	-0.054206282
181	0xbd9cf3e9	-0.0766371
182	0x3dff556b	0.12467464
183	0x3cf6ab84	0.030111082
184	0x3e399438	0.18122947
185	0x3c533238	0.012890391
186	0x3d8395ed	0.064250804
187	0x3db2aec6	0.08724742
188	0x3e715dfc	0.23571008
189	0xbe826f74	-0.25475657
190	0xbeb0095b	-0.34382138
191	0x3d0e19e2	0.034692653
192	0x3dab6351	0.083685525
193	0xbda82b75	-0.08211414
194	0x3e47e3d7	0.19520508
195	0x3c2cf257	0.010555825
196	0xbd9bcee9	-0.07607824
197	0x3d72d75b	0.05928741
198	0xbe5cc299	-0.21558608
199	0x3d3b5925	0.04573931
200	0xbc8c2d6f	-0.017111508
201	0xbd3f2c47	-0.046673086
202	0x3e483fa6	0.1955553
203	0x3c54556e	0.012959821
204	0xbd861365	-0.06546668
205	0xbd47759f	-0.048696157
206	0xbf2e53dc	-0.6809671
207	0x3cc5e936	0.024159055
208	0xbcecab10	-0.028890163
209	0xbe6c8c4d	-0.23100396
210	0xbd99b73a	-0.07505651
211	0xbe018c3a	-0.12651148
212	0x3e10ea26	0.1415182
213	0xbe4008b1	-0.18753316
214	0xbd9ac364	-0.07556799
215	0xbd832cdd	-0.06405041
216	0xbc199775	-0.009374489
217	0x3d87e068	0.06634599
218	0x3d2951ba	0.041337706
219	0x3e19a628	0.1500479
220	0x3e0df7e7	0.13864098
221	0x3cc4a145	0.02400268
222	0xbe322eb5	-0.1740063
223	0xbe13d3d2	-0.14436272
224	0xbd92f517	-0.071756534
225	0x3d8cfa30	0.06883657
226	0xbe06ae4e	-0.1315243
227	0x3b3ebbf9	0.002910374
228	0xbd522446	-0.051304124
229	0xbdf160c6	-0.11786036
230	0x3db1204a	0.08648737
231	0xbdae495f	-0.08510088
232	0x3d96fffe	0.073730454
233	0x3ddf843f	0.10913896
234	0x3ee734ba	0.45157415
235	0x3dc8dda8	0.098079026
236	0xbe63ecec	-0.22258347
237	0x3e1069fe	0.14102933
238	0x3e79e443	0.24403481
239	0x3d6c12b1	0.057635013
240	0x3e1f67a0	0.15566874
241	0x3cc702b3	0.02429328
242	0x3e6283d1	0.22120596
243	0x3d8cc0b7	0.06872695
244	0x3d938a4b	0.07204112
245	0xbe639e00	-0.22228241
246	0xbd7ab6f5	-0.061209638
247	0x3e2591c7	0.16168891
248	0x3d4a8eb3	0.049452495
249	0xbd06d668	-0.032919317
250	0xbe4d5b37	-0.20054327
251	0x3e324a9e	0.17411277
252	0x3ca4ec1c	0.020132117
253	0xbd0cec08	-0.034404784
254	0x3d3d5869	0.046226893
255	0x3c4ad24c	0.01237924

network_body._body_endoder.seq_layers.0.bias f4 [256]
0	0xbf284247	-0.6572613
1	0xbedfbd22	-0.43698984
2	0xbe353bf1	-0.17698647
3	0x3f03042c	0.5117824
4	0xbd079ab6	-0.03310653
5	0xbf0f4dad	-0.559779
6	0xbeb894d6	-0.36051053
7	0xbe289291	-0.1646216
8	0xbe8d1584	-0.27555478
9	0xbe87492f	-0.26423022
10	0x3f2d3eb5	0.6767381
11	0xbe34e94f	-0.17667125
12	0x3d8da1aa	0.069156006
13	0xbf0ed5d9	-0.55795056
14	0x3cde306a	0.027122695
15	0x3f218cab	0.6310527
16	0xbe12c413	-0.14332609
17	0xbd9545e0	-0.07288718
18	0xbd7bec00	-0.061504364
19	0xbf070df3	-0.5275566
20	0xbe8bc8ae	-0.27301544
21	0xbe4a724a	-0.1977016
22	0x3f069f99	0.52587277
23	0x3f539bdd	0.82659703
24	0x3eaa4b2c	0.33260477
25	0xbf1298ae	-0.5726422
26	0xbf12a3ae	-0.57281005
27	0x3eb97782	0.3622399
28	0x3ee332b0	0.4437461
29	0xbecfd920	-0.4059534
30	0xbca0560a	-0.019572277
31	0x3eeb8d2b	0.4600614
32	0x3db0c719	0.08631725
33	0x3f2506ad	0.6446331
34	0xbf38d422	-0.7219869
35	0xbeb1ad7c	-0.3470267
36	0xbcb07ddf	-0.021544395
37	0xbd764bb8	-0.060130805
38	0xbd6f6b37	-0.058451857
39	0x3ea540d7	0.3227603
40	0x3e352fac	0.17693967
41	0x3d983672	0.074322596
42	0xbcfede2a	-0.031111795
43	0x3f0ce8d3	0.5504276
44	0xbeb6047a	-0.3555029
45	0xbe5f3b03	-0.21799855
46	0xbecb327c	-0.39686954
47	0xbf56d271	-0.8391486
48	0xbdc2c418	-0.09510058
49	0xbdaca8e8	-0.08430654
50	0xbe532ae3	-0.20621829
51	0x3dd7c21b	0.105350696
52	0xbe8df374	-0.27724802
53	0xbf10025b	-0.56253594
54	0xbf0cdcc4	-0.5502436
55	0xbe8a724f	-0.27040336
56	0x3f0b0ea5	0.5431922
57	0xbf13fcea	-0.5780779
58	0x3f0a5073	0.54029006
59	0xbeaf2b0e	-0.34212536
60	0x3f5ce58c	0.8628776
61	0xbed5e7ab	-0.4177831
62	0x3dc73694	0.09727207
63	0x3d42541b	0.04744349
64	0xbe95c7d6	-0.29254025
65	0xbe984cd5	-0.29746118
66	0xbdba2205	-0.0908852
67	0xbe683606	-0.22676858
68	0xbeca54ab	-0.39517722
69	0xbd041e68	-0.03225556
70	0xbf3d4717	-0.739366
71	0xbf3b3b47	-0.73137325
72	0x3f03d48e	0.5149621
73	0xbec825aa	-0.39091235
74	0xbdfdfa93	-0.12401309
75	0xbd9d5463	-0.07682111
76	0xbe4c8e3c	-0.19976133
77	0xbeb1c121	-0.34717658
78	0xbb72bc9c	-0.003703869
79	0x3ca87dc9	0.020567792
80	0xbf0c0527	-0.5469536
81	0x3f0defbf	0.5544395
82	0xbe5c6fa8	-0.21526968
83	0xbe353727	-0.1769682
84	0xbefac151	-0.48975614
85	0x3e152c17	0.145676
86	0x3eeeebbd	0.4666423
87	0xbe32723a	-0.17426386
88	0x3e3cad16	0.18425402
89	0xbf1eed96	-0.6208128
90	0xbe9581fd	-0.29200736
91	0x3f0aa9a9	0.5416513
92	0xbf39139c	-0.72295547
93	0x3ef05981	0.46943286
94	0xbee211d8	-0.4415424
95	0xbe853ad5	-0.26021448
96	0xbe96cc5e	-0.29452795
97	0xbf1e49d4	-0.618314
98	0xbf03e70c	-0.51524425
99	0xbdcd169c	-0.10014078
100	0xbc44b9aa	-0.012007156
101	0xbef4d5b7	-0.478193
102	0x3f29eca8	0.66376734
103	0x3e3e8534	0.186055
104	0x3e32da1d	0.17466016
105	0xbe54ec1f	-0.20793198
106	0x3ea1fa54	0.31636298
107	0xbe1100cc	-0.1416046
108	0xbeb63e87	-0.3559458
109	0xbe4f2b9b	-0.20231478
110	0xbe3f05ce	-0.18654558
111	0xbedef929	-0.4354947
112	0x3e0d210d	0.13782139
113	0xbecda118	-0.40161967
114	0x3e871b65	0.26388088
115	0xbf0541dd	-0.52053624
116	0xbee93e91	-0.45555547
117	0xbeb555fa	-0.35417157
118	0x3e5a0cce	0.21293947
119	0xbec1cb1d	-0.37850276
120	0xbd227a56	-0.03966745
121	0x3f14ebf1	0.5817252
122	0xbecb5b90	-0.39718294
123	0xbf0ba3c5	-0.5454677
124	0x3f1f765a	0.62289965
125	0xbecf9012	-0.40539604
126	0xbedfcc80	-0.4371071
127	0x3f0be7b9	0.54650456
128	0xbec0bc48	-0.37643647
129	0x3f52f432	0.8240386
130	0x3dc3defd	0.09564016
131	0x3eaae6c1	0.33379176
132	0xbecc42ff	-0.39894864
133	0xbe4aa3cd	-0.19789048
134	0xbed21af5	-0.41036192
135	0x3e1ed3be	0.1551046
136	0xbe3563fe	-0.17713925
137	0xbeb8631c	-0.36013114
138	0xbee018f7	-0.43769047
139	0x3e1872ec	0.14887589
140	0xbf1adca4	-0.6049292
141	0xbf3ce7f8	-0.73791456
142	0x3ea68d79	0.3252981
143	0x3e26da76	0.16294274
144	0xbe82901e	-0.25500578
145	0xbd3e0ba1	-0.04639781
146	0x3ee8050c	0.4531635
147	0xbe9c0bea	-0.3047784
148	0xbeb4c8dd	-0.35309497
149	0xbef8a64a	-0.48564368
150	0x3ead5c73	0.33859596
151	0x3ee30347	0.44338438
152	0xbf06b780	-0.5262375
153	0x3e630463	0.22169642
154	0xbeb66b80	-0.3562889
155	0x3f528597	0.8223509
156	0xbed41369	-0.4142106
157	0xbea5dc0e	-0.3239445
158	0x3e4a4361	0.19752266
159	0xbee35dbf	-0.4440746
160	0x3ec361bc	0.38160503
161	0x3d005aa1	0.03133643
162	0xbe7b3084	-0.24530226
163	0xbe0a5dca	-0.1351234
164	0x3c08e1b6	0.008354595
165	0x3f2b7dc4	0.6698878
166	0xbefea647	-0.49736235
167	0x3ec17e3a	0.37791616
168	0xbee5f419	-0.44912794
169	0xbed67cbd	-0.41892043
170	0xbf08083f	-0.5313758
171	0x3ef6919e	0.48157972
172	0xbda0559f	-0.07828831
173	0xbe0da129	-0.13831009
174	0xbf114736	-0.56749284
175	0xbe6faa40	-0.23404789
176	0xbeb9c7a3	-0.36285123
177	0x3eca5100	0.39514923
178	0xbe02f443	-0.12788491
179	0xbe1142d2	-0.14185646
180	0x3ece3326	0.40273398
181	0xbee1f97a	-0.44135648
182	0xbf080538	-0.53132963
183	0xbedffd78	-0.4374807
184	0xbf31ecb2	-0.69501793
185	0x3dae91ca	0.08523901
186	0xbd771a5b	-0.06032787
187	0x3eb91f4c	0.3615669
188	0xbee6c9bc	-0.45075786
189	0x3ea58142	0.32325178
190	0x3e3e0345	0.18555935
191	0xbec8ec7b	-0.3924292
192	0xbe5188c4	-0.20462328
193	0x3e656ea4	0.22405487
194	0xbda80be5	-0.08205394
195	0x3d025ad7	0.031824913
196	0xbee6b9ad	-0.45063534
197	0xbdf678e3	-0.12034776
198	0xbed7bff6	-0.42138642
199	0x3d6aad7c	0.057294354
200	0xbe6f2808	-0.23355114
201	0xbebc62b4	-0.36794055
202	0x3da07c29	0.07836182
203	0xbebd096c	-0.3692125
204	0xbd80a1db	-0.062808715
205	0x3e1707d4	0.1474908
206	0x3da3ee7a	0.0800447
207	0xbe5b4006	-0.21411142
208	0x3ef9f54f	0.48819968
209	0xbd6b4428	-0.057438046
210	0xbeff2564	-0.49833214
211	0x3c4d59aa	0.012533585
212	0xbf1d7846	-0.6151165
213	0x3ec8cdf8	0.39219642
214	0xbf278d8b	-0.6545035
215	0x3dc29fb5	0.09503118
216	0xbf0e5792	-0.5560237
217	0xbe17ec3d	-0.14836212
218	0xbe6082a5	-0.21924837
219	0x3f832b5a	1.0247605
220	0xbf22e7f9	-0.6363521
221	0x3f481194	0.7815182
222	0xbec86c19	-0.39144972
223	0x3f2dca7a	0.6788708
224	0xbeecf122	-0.4627772
225	0xbe94c054	-0.29052985
226	0xbc14770b	-0.009061585
227	0x3e6622bc	0.22474188
228	0xbc0157c4	-0.00789446
229	0x3e0f5cb4	0.14000207
230	0xbee64678	-0.44975638
231	0xbe5a5d2f	-0.21324609
232	0x3ef86358	0.48513293
233	0x3f050db6	0.51974046
234	0x3ebabdc6	0.3647291
235	0xbe952d9f	-0.2913637
236	0x3ca8c82f	0.020603267
237	0xbebe4c17	-0.37167427
238	0x3c8452b7	0.016152723
239	0x3ed72d52	0.42026764
240	0x3e92fc45	0.2870809
241	0xbedadbc1	-0.42745784
242	0x3ebf25cc	0.37333524
243	0xbe93d3e4	-0.28872597
244	0xbe8862fe	-0.26638025
245	0x3f30924a	0.6897322
246	0x3e6733cc	0.22578353
247	0x3f44a598	0.76815176
248	0xbee2e045	-0.4431173
249	0x3f2b8eb0	0.670146
250	0x3e774640	0.24147892
251	0x3dcce627	0.100048356
252	0xbe83011f	-0.25586793
253	0x3e255f20	0.16149569
254	0x3e21b9cf	0.15793537
255	0x3f30cfff	0.69067377

network_body._body_endoder.seq_layers.0.weight f4 [256, 6]
0	0x3e20afe7	0.15692101
1	0x3f10f6d2	0.5662662
2	0x3e808056	0.25097913
3	0x3dbe48ae	0.09291206
4	0xbe52f830	-0.20602489
5	0xbf0d7fb2	-0.5527297
6	0xbd849e8a	-0.064755514
7	0xbdb4ec40	-0.088341236
8	0x3e12fe36	0.14354786
9	0x3e56eba5	0.20988329
10	0xbed06031	-0.40698388
11	0xbe803a5c	-0.25044525
12	0xbf93b118	-1.153842
13	0x3e3e7238	0.18598258
14	0x3f347c1b	0.7050187
15	0x3ce52801	0.027973177
16	0x3e827705	0.2548143
17	0xbf2ffdd0	-0.6874666
18	0xbc800fda	-0.015632559
19	0xbeff1e60	-0.49827862
20	0xbc5a753e	-0.013333617
21	0x3fb2aed1	1.39596
22	0x3ede5644	0.4342519
23	0x3f25d0ea	0.647719
24	0xbcf5d21d	-0.030007416
25	0x3efb4e48	0.4908316
26	0x3e0eaa20	0.13932085
27	0xbf05ea0e	-0.52310264
28	0x3eecbc3f	0.4623737
29	0x3f2cf110	0.6755533
30	0x3e46d124	0.19415718
31	0x3e510a56	0.20414099
32	0x3d23a938	0.0399563
33	0xbefda48b	-0.495396
34	0xbf0e6f28	-0.5563836
35	0x3e7b678f	0.24551223
36	0x3f5d7e25	0.86520606
37	0x3d848491	0.064705975
38	0x3e35b667	0.17745362
39	0x3f1808e0	0.5938854
40	0x3df809a1	0.121112116
41	0x3f5924f1	0.84821993
42	0x3e24ffca	0.16113201
43	0x3ed0a2a8	0.40749097
44	0xbe08c091	-0.13354708
45	0xbfe10032	-1.7578185
46	0x3d24b2e5	0.04020967
47	0x3e161dc2	0.14659789
48	0x3e76e3da	0.24110356
49	0xbdd5f6e5	-0.10447482
50	0x3e913483	0.28360376
51	0xbfaa864d	-1.3322235
52	0xbf323027	-0.69604725
53	0xbe896535	-0.26835027
54	0xbe69e372	-0.2284067
55	0xbe8aa46f	-0.27078578
56	0x3e4a398d	0.19748516
57	0x3eceeb03	0.40413675
58	0xbec3989f	-0.38202378
59	0xbee3eda2	-0.44517237
60	0x3eb831e8	0.35975575
61	0xbfae1b55	-1.3602091
62	0xbe422f1a	-0.1896328
63	0xbf9c58ef	-1.221464
64	0x3e9a6170	0.30152464
65	0x3e8dbebf	0.2768459
66	0x3c8f3dff	0.017485617
67	0xbe2de2b8	-0.16981018
68	0x3c737264	0.014858816
69	0xbe55226c	-0.20813912
70	0xbe050606	-0.12990579
71	0x3fccefc8	1.6010675
72	0x3f43fe30	0.76559734
73	0x3e9d8ca1	0.30771354
74	0x3d3a361f	0.04546177
75	0xbef76bd7	-0.48324463
76	0x3ef1cf36	0.47228402
77	0x3f0166a7	0.5054726
78	0x3eb0a46b	0.3450044
79	0xbdc17190	-0.094454885
80	0xbd1b0142	-0.037842996
81	0x3f429884	0.7601397
82	0x3f297475	0.66193324
83	0x3ee74358	0.45168567
84	0x3f1fda54	0.6244252
85	0xbeb1f01d	-0.34753504
86	0x3da327b8	0.0796656
87	0x3ec9d56f	0.3942065
88	0x3dc83187	0.097750716
89	0x3f8bc592	1.0919669
90	0x3f583229	0.8445154
91	0xbda0c64f	-0.07850324
92	0x3fa26775	1.2687823
93	0x3e10e0c6	0.14148244
94	0x3f961bd4	1.1727242
95	0xbe5f4270	-0.21802688
96	0x3af1170b	0.0018393708
97	0xbe15c8b8	-0.1462735
98	0xbe678e52	-0.22612885
99	0xbfbe6b73	-1.4876541
100	0xbf5cd844	-0.86267495
101	0xbeb47be7	-0.3525078
102	0xbefe7bc1	-0.49703792
103	0xbe978d5b	-0.29600033
104	0xbea57be6	-0.3232109
105	0xbeefd677	-0.4684331
106	0xbea66d91	-0.32505468
107	0x3ef84918	0.48493266
108	0xbe9214da	-0.28531533
109	0x3efd7783	0.49505243
110	0xbf4dc479	-0.8037792
111	0x3d7ea6b4	0.0621707
112	0x3f061ef5	0.52390987
113	0x3e50b316	0.20380816
114	0x3f3dde28	0.7416711
115	0x3ddf80ae	0.109132156
116	0x3e4e2704	0.20132071
117	0x3f113d23	0.5673391
118	0xbea80db1	-0.32822946
119	0xbe64da87	-0.22348987
120	0x3f3f434d	0.7471207
121	0x3daa0516	0.08301751
122	0x3ef37e7f	0.47557446
123	0x3d9636ec	0.07334694
124	0x3d029c86	0.031887554
125	0x3e9caa37	0.30598614
126	0x3da496b6	0.08036558
127	0xbdbf813c	-0.093508214
128	0x3d3cd351	0.046099965
129	0xbf8e5930	-1.1120968
130	0xbf797416	-0.9744276
131	0xbf6f0e33	-0.9338104
132	0xbea3b0eb	-0.31970915
133	0x3ea60991	0.32429174
134	0xbe87ab62	-0.26497942
135	0x3f2b6b35	0.6696046
136	0x3f7c546a	0.98566306
137	0x3f01f229	0.5076013
138	0xbcd0239e	-0.025407609
139	0x3b67efc8	0.0035390723
140	0x3de584d1	0.11206973
141	0xbefdf5e9	-0.49601677
142	0x3eeab0b1	0.4583793
143	0xbf039a38	-0.51407194
144	0xbe89ab67	-0.26888582
145	0xbe95487c	-0.29156864
146	0x3e04acb8	0.12956512
147	0xbfc0149a	-1.5006287
148	0xbe15eb26	-0.14640483
149	0x3e7573c8	0.23969948
150	0xbe790e79	-0.24321927
151	0x3f4c6a03	0.7984926
152	0xbe08a820	-0.13345385
153	0xbf72888a	-0.9473959
154	0xbe842176	-0.2580678
155	0xbf5c7203	-0.8611147
156	0xbde5458c	-0.11194906
157	0x3edff934	0.43744814
158	0xbe55b28c	-0.20868891
159	0xbdeb8848	-0.11500603
160	0xbf554716	-0.83311594
161	0x3ba59a34	0.005053783
162	0xbe4fd0d6	-0.20294508
163	0x3ec6d6f1	0.38835862
164	0x3cd256b5	0.02567611
165	0xbe4565dd	-0.19277139
166	0x3f1fd8c3	0.6244013
167	0x3f30b71e	0.69029415
168	0x3e0a1e5c	0.13488144
169	0x3e28e58d	0.16493817
170	0x3dc584ea	0.09644492
171	0x3e21a97f	0.15787314
172	0x3ead8017	0.33886787
173	0xbec2a465	-0.38016048
174	0x3df147c8	0.11781269
175	0xbe95b963	-0.29243
176	0x3e88a4e3	0.266883
177	0x3f7fa341	0.9985848
178	0xbf06ca9f	-0.52652925
179	0x3f3bc96f	0.7335424
180	0x3d0f4d51	0.034985844
181	0x3ee13256	0.43983716
182	0xbe1adf12	-0.15124157
183	0x3e03e8d3	0.12881784
184	0x3d87eae3	0.06636598
185	0xbfad1135	-1.3520876
186	0xbdf50937	-0.11964648
187	0xbcbca19f	-0.023026286
188	0xbd0a65bc	-0.033788428
189	0x3e4b0f36	0.19830021
190	0x3edd9fec	0.43286073
191	0x3f5e4665	0.86826164
192	0xbd64f58f	-0.055898245
193	0x3f17bc55	0.59271747
194	0x3e99e3b4	0.30056536
195	0xbfc22731	-1.516821
196	0x3e0c1ad0	0.13682103
197	0xbe2dbc8a	-0.16966453
198	0x3f08de03	0.53463763
199	0x3b061c17	0.002046352
200	0xbee22e80	-0.44176102
201	0xbf60f97c	-0.8788068
202	0x3f505313	0.8137676
203	0xbf05238c	-0.52007365
204	0xbeaaaac1	-0.333334
205	0x3d5074fe	0.050892822
206	0x3e17b687	0.14815722
207	0x3e3887fb	0.18020622
208	0x3fca8eef	1.582487
209	0xbe21e456	-0.1580976
210	0x3ed2779f	0.4110689
211	0xbe239169	-0.15973438
212	0x3f32bb39	0.6981693
213	0x3ec367e1	0.3816519
214	0xbec46388	-0.38357186
215	0x3e1087bd	0.1411428
216	0xbe427792	-0.18990925
217	0xbedc1712	-0.4298635
218	0x3e8f9bf6	0.28048676
219	0x3f92c4ef	1.1466349
220	0xbf060f66	-0.52367246
221	0xbed6ba4f	-0.41939017
222	0x3c932a1d	0.017964417
223	0x3e9d0963	0.30671224
224	0xbe25f472	-0.1620653
225	0xbf78b0dd	-0.9714487
226	0x3e65bfa1	0.22436382
227	0xbd959713	-0.07304206
228	0xbd6b5ac1	-0.057459597
229	0x3f9020d1	1.1260015
230	0xbe98b00f	-0.29821822
231	0x3f346125	0.7046073
232	0x3f43f2bb	0.7654225
233	0x3e500d9f	0.20317696
234	0xbe8624b9	-0.26199892
235	0x3d13cb67	0.03608265
236	0x3de820d5	0.11334387
237	0x3e58b041	0.21160986
238	0x3f04daa5	0.51896125
239	0x3f6287b7	0.88488334
240	0x3e18c7a9	0.14919914
241	0xbedd0419	-0.4316719
242	0x3f96585e	1.1745718
243	0x3ed03707	0.40666983
244	0x3e8e7959	0.27826956
245	0x3f809514	1.0045495
246	0xbe8dc823	-0.27691755
247	0xbf2ed465	-0.6829284
248	0xbd4b6556	-0.04965719
249	0xbec4460d	-0.38334695
250	0xbf542f3d	-0.8288458
251	0xbf84e53f	-1.038246
252	0x3e201dc7	0.15636359
253	0x3f3e49f7	0.7433161
254	0x3d2aff6e	0.041747503
255	0x3fb44d99	1.4086181

network_body._body_endoder.seq_layers.2.bias f4 [256]
0	0x3da83547	0.08213287
1	0xbe868fb1	-0.26281503
2	0xbe774a65	-0.24149473
3	0xbeb5fea6	-0.35545844
4	0x3e9531d0	0.29139566
5	0xbf093453	-0.53595465
6	0x3e73b32e	0.2379882
7	0xbe8078b1	-0.2509208
8	0xbeab6787	-0.33477423
9	0xbe8b57e0	-0.2721548
10	0xbd5ef8a4	-0.05443634
11	0xbeb998a0	-0.36249256
12	0xbe7acedd	-0.24492975
13	0x3d8159ca	0.06315954
14	0xbe7fcee7	-0.2498127
15	0xbe0197ec	-0.1265561
16	0xbea5de4c	-0.32396162
17	0xbe64b689	-0.22335257
18	0xbeb4192e	-0.3517546
19	0xbe79805b	-0.2436537
20	0xbe25cb81	-0.16190912
21	0xbedb26ac	-0.42802942
22	0x3e84b110	0.25916338
23	0x3dd09382	0.10184385
24	0x3df1eb74	0.11812487
25	0x3e89c57a	0.26908475
26	0xbd99de05	-0.0751305
27	0x3e0afe63	0.13573603
28	0x3e5266b6	0.20546994
29	0xbe78889f	-0.24270867
30	0xbe93e641	-0.28886607
31	0xbe610504	-0.2197457
32	0xbe1bee8a	-0.15227714
33	0xbd838bf9	-0.06423182
34	0x3e036868	0.12832797
35	0xbd8d16e9	-0.068891354
36	0x3e50093a	0.2031602
37	0xbe8c6b20	-0.2742548
38	0xbe832095	-0.25610796
39	0xbeb10b31	-0.3457885
40	0xbe5c3fa1	-0.21508648
41	0x3e3fdeeb	0.1873738
42	0x3db61d97	0.088923626
43	0xbdcc0cee	-0.09963404
44	0x3e68ef88	0.22747624
45	0xbe0485bb	-0.12941639
46	0xbeafec73	-0.34360084
47	0xbe3b7558	-0.18306482
48	0xbd70d4d2	-0.05879671
49	0xbe61aa25	-0.22037561
50	0xbed2625c	-0.41090667
51	0xbe928b2d	-0.28621808
52	0xbe13bb0a	-0.14426818
53	0xbf29e09d	-0.6635836
54	0x3e84f306	0.25966662
55	0x3e67d700	0.2264061
56	0xbea07e15	-0.31346193
57	0xbdc10b3b	-0.0942597
58	0x3c6307f4	0.013856877
59	0x3cb62da0	0.022238553
60	0xbe698e36	-0.22808155
61	0xbeaf81a8	-0.34278607
62	0xbe5ec22c	-0.21753758
63	0xbdc601e1	-0.09668327
64	0x3eb193c5	0.34683052
65	0xbeb95367	-0.36196443
66	0xbe2af785	-0.16695984
67	0x3e0338d5	0.12814648
68	0xbe98ab4e	-0.29818195
69	0x3eb55970	0.35419798
70	0x3bdd569d	0.00675471
71	0xbed70d60	-0.42002392
72	0xbdd41902	-0.10356332
73	0xbec677f3	-0.3876339
74	0x3e6656cf	0.22494052
75	0xbe9ff964	-0.31244957
76	0xbe4acb03	-0.19804005
77	0xbe605f80	-0.2191143
78	0xbecd5edb	-0.4011143
79	0xbdd8f179	-0.10592932
80	0xbec3f7f0	-0.382751
81	0xbdc8954b	-0.097941004
82	0x3e6e071d	0.23244901
83	0xbebb86ec	-0.36626375
84	0x3aec46ff	0.001802653
85	0xbe293fab	-0.16528194
86	0x3ced70ee	0.028984513
87	0xbe87aca4	-0.26498902
88	0xbe85cc6d	-0.26132527
89	0xbe037249	-0.12836565
90	0x3da133a9	0.078711815
91	0xbeb56882	-0.35431296
92	0x3e3f44cd	0.18678589
93	0xbed2f450	-0.4120202
94	0xbdc1b956	-0.09459178
95	0x3b72dde0	0.0037058517
96	0xbed51a7f	-0.41621777
97	0x3e4174e1	0.18892242
98	0x3cfc24dd	0.030779297
99	0x3c367d77	0.011138312
100	0xbedea1d1	-0.4348283
101	0xbef504c4	-0.47855198
102	0x3dc15afa	0.094411805
103	0x3d7f8a90	0.062388003
104	0xbe7e756a	-0.24849477
105	0xbe36d3e6	-0.1785427
106	0xbda06f7f	-0.07833766
107	0xbe353258	-0.17694986
108	0xbe1804f2	-0.14845636
109	0x3f200375	0.62505275
110	0x3e01f59e	0.12691352
111	0x3e9d9b16	0.30782384
112	0xbd919786	-0.07108979
113	0x3e29bb16	0.16575274
114	0x3dc7584b	0.097336374
115	0x3d68c50c	0.056828544
116	0x3e90a089	0.2824748
117	0x3e3512c0	0.17682934
118	0x3e248141	0.16064931
119	0xbe39ad06	-0.1813241
120	0xbcca2158	-0.024674103
121	0x3ce4bfb1	0.027923437
122	0xbe99cd25	-0.30039325
123	0xbd325d89	-0.043546233
124	0xbe9c211e	-0.30494016
125	0xbc39626e	-0.011314971
126	0x3cc1a9c9	0.02364053
127	0xbbccf9bb	-0.006255356
128	0xbec1c5e8	-0.37846303
129	0xbe3b0dfd	-0.18267055
130	0x3e984e92	0.29747444
131	0x3eabb0af	0.33533236
132	0xbe85ad1a	-0.2610863
133	0xbe67eb5e	-0.22648379
134	0x3e381df5	0.17980178
135	0xbe378c9d	-0.17924733
136	0xbe2293a6	-0.15876636
137	0x3c3f2191	0.011665718
138	0xbe3d9e15	-0.18517335
139	0xbf036556	-0.513265
140	0xbed6305a	-0.41833764
141	0xbe3e3dea	-0.18578306
142	0xbea5d8c0	-0.3239193
143	0xbd412510	-0.047154486
144	0xbea40ee3	-0.32042608
145	0xbdb67f17	-0.08910959
146	0x3d1c3cf7	0.038144078
147	0xbe5a413c	-0.21313947
148	0xbe1974df	-0.14985989
149	0xbed6b2ff	-0.41933438
150	0xbea7d370	-0.32778502
151	0xbd7351d4	-0.05940421
152	0x3ce46ae7	0.027883006
153	0xbeb3217a	-0.34986478
154	0xbe9002bb	-0.28127083
155	0xbd17cf0e	-0.037062697
156	0x3e46fce4	0.19432408
157	0xbeb5b8ad	-0.3549246
158	0xbdbd8344	-0.092535526
159	0xbe59a615	-0.21254762
160	0xbea8afb8	-0.32946563
161	0x3ea22fcf	0.316771
162	0xbd56b7a8	-0.052421242
163	0xbe8dd7a0	-0.2770357
164	0xbe5ffcb1	-0.21873738
165	0xbe85b367	-0.26113436
166	0xbf1226e5	-0.570906
167	0x3d1dbd48	0.03851059
168	0xbeb86061	-0.3601103
169	0x3e3d623d	0.18494506
170	0xbe72e7fb	-0.23721306
171	0xbec31d20	-0.38108158
172	0xbe5a9bc8	-0.21348488
173	0xbe7bd8e2	-0.24594453
174	0xbe8bc7db	-0.27300915
175	0xbe6727af	-0.22573732
176	0xbf01e647	-0.50742
177	0xbe21311d	-0.15741391
178	0xbe03e255	-0.12879308
179	0xbf03d78f	-0.5150079
180	0xbefbc635	-0.49174657
181	0xbd7060eb	-0.05868618
182	0xbe5d487f	-0.21609686
183	0x3ef0bdc5	0.47019783
184	0xbd8a3aa5	-0.06749467
185	0xbe3c218f	-0.18372177
186	0xbdebed9b	-0.11519929
187	0xbe4215ce	-0.1895363
188	0xbe019518	-0.12654531
189	0xbcce0272	-0.02514765
190	0xbea9ea38	-0.33186507
191	0xbec40e0f	-0.38291976
192	0xbe199d39	-0.15001382
193	0x3e785c02	0.24253848
194	0xbe6ead8b	-0.23308389
195	0xbc775824	-0.015096698
196	0x3da20101	0.07910348
197	0xbecb2c48	-0.3968222
198	0xbe89be4a	-0.26902992
199	0xbe9f352a	-0.31095248
200	0xb954d615	-0.00020297647
201	0xbefbb45e	-0.49161047
202	0xbec58070	-0.38574553
203	0x3dd7f956	0.10545604
204	0xbeafd328	-0.34340787
205	0xbece6cc0	-0.40317345
206	0xbda0b16c	-0.078463405
207	0xbeaadd4b	-0.33371958
208	0xbe761a99	-0.24033584
209	0xbe19eb86	-0.15031251
210	0x3dbc9d04	0.09209636
211	0xbe2357ab	-0.15951411
212	0x3e623c27	0.22093259
213	0x3e649ac0	0.22324657
214	0x3d421434	0.04738255
215	0x3d00ce6a	0.03144685
216	0xbe91318c	-0.28358114
217	0xbe8abc25	-0.27096668
218	0x3eac68b3	0.3367363
219	0xbe592701	-0.21206285
220	0x3eac94ca	0.33707267
221	0x3e4db9eb	0.20090453
222	0x3d5e1f52	0.054229088
223	0x3e4347fb	0.19070427
224	0x3cb06dfe	0.021536823
225	0x3b9ee58d	0.004849142
226	0x3d5472bd	0.051867235
227	0xbe8607d3	-0.26177844
228	0xbe3568e6	-0.17715797
229	0xbe37a4a7	-0.17933904
230	0xbecaf87e	-0.3964271
231	0xbecd362a	-0.40080386
232	0xbe8fa27b	-0.2805365
233	0x3e4b088e	0.19827482
234	0xbeb8b853	-0.36078128
235	0xbdf6bae8	-0.12047368
236	0xbe5c0af2	-0.2148855
237	0xbeb81d26	-0.35959738
238	0xbea8a72b	-0.3294004
239	0xbe931629	-0.28727844
240	0xbef09575	-0.46989027
241	0xbe755508	-0.23958218
242	0xbe2cc429	-0.16871704
243	0xbe2796e9	-0.16366161
244	0xbeacba66	-0.3373596
245	0x3f0635f4	0.52426076
246	0xbe3adfca	-0.18249431
247	0xbdf55adb	-0.1198022
248	0xbe2cc9de	-0.16873881
249	0x3e94b13f	0.29041478
250	0x3e367fc6	0.17822179
251	0xbee84737	-0.45366833
252	0xbe8a56d5	-0.27019373
253	0x3ecda186	0.40162295
254	0xbea55c83	-0.32297143
255	0xbc9894ed	-0.0186257

network_body._body_endoder.seq_layers.2.weight f4 [256, 256]
0	0x3e677dcc	0.22606581
1	0x3d65517f	0.055985924
2	0xbd1bcf66	-0.038039587
3	0xbe3d6196	-0.18494257
4	0xbe420b5d	-0.18949647
5	0x3c9abbdd	0.018888408
6	0x3d446bce	0.047954373
7	0xbe52539a	-0.20539704
8	0xbd6909a3	-0.056893956
9	0xbe45ed0a	-0.19328704
10	0xbe956ff9	-0.2918699
11	0x3d5c9606	0.05385401
12	0x3df8da80	0.121510506
13	0x3d9dc919	0.07704372
14	0x3d86a250	0.065739274
15	0xbe38a095	-0.18030007
16	0xbe6338dd	-0.2218966
17	0x3dc5aff9	0.09652705
18	0x3e193f28	0.14965498
19	0x3e575cad	0.21031447
20	0x3db09e7a	0.08623977
21	0xbe6b1864	-0.22958523
22	0x3dd6cd35	0.10488359
23	0xbeebf625	-0.4608623
24	0xbe44aae2	-0.19205812
25	0x3e41f654	0.18941623
26	0xbd5c2ad3	-0.053751778
27	0xbce1ef80	-0.027580023
28	0xbe920d4f	-0.2852578
29	0xbd3cf1b6	-0.04612895
30	0xbd088aa3	-0.03333534
31	0xbcd5880f	-0.026065854
32	0xbd9056ba	-0.07047792
33	0xbed804b8	-0.421911
34	0xbe8391dd	-0.25697222
35	0xbafc53ee	-0.0019251087
36	0xbf11bd2b	-0.5692927
37	0x3bb411d8	0.005495291
38	0xbc691641	-0.014226497
39	0xbbfcc28d	-0.007713622
40	0xbdf2ae2c	-0.11849627
41	0xbf2d655d	-0.67732793
42	0xbec41ca9	-0.38303116
43	0xbe371811	-0.17880274
44	0xbe912742	-0.28350264
45	0x3c4cce05	0.012500291
46	0xbdb598db	-0.088670455
47	0x3d780de3	0.06056012
48	0xbdc01859	-0.09379644
49	0x3d8ef768	0.06980783
50	0x3d4a024f	0.049318608
51	0xbc4ed8d1	-0.012624935
52	0xbd80cf33	-0.0628952
53	0xbcb245c8	-0.02176179
54	0xbe93093f	-0.28717992
55	0xbe945a9c	-0.2897538
56	0xbe27e62a	-0.16396394
57	0x3d196bb7	0.03745624
58	0xbedc5eaa	-0.43040973
59	0xbe12bbb1	-0.14329411
60	0xbe74c66d	-0.23903818
61	0xbef3fb39	-0.47652605
62	0x3e4add89	0.19811071
63	0x3e32b826	0.1745306
64	0xbe858423	-0.26077375
65	0xbe536005	-0.20642097
66	0x3d403466	0.04692497
67	0x3d8360b8	0.06414932
68	0x3c04cdb6	0.008105686
69	0xbd9c6767	-0.0763691
70	0x3e3a0be3	0.18168597
71	0x3e45446e	0.19264385
72	0xbe97f9bd	-0.29682723
73	0xbe435a99	-0.19077529
74	0xbf0809ff	-0.5314025
75	0x3c4c4931	0.012468622
76	0x3dd854cc	0.10563049
77	0x3e165d76	0.1468409
78	0xbde1e2b7	-0.110295705
79	0xbe431e66	-0.19054565
80	0x3e59f30b	0.2128412
81	0xbe418b18	-0.18900716
82	0xbe4c47ac	-0.19949216
83	0xbd576c87	-0.052593734
84	0xbd6e6c12	-0.058208533
85	0xbe75978c	-0.23983592
86	0x3de62d7a	0.11239143
87	0x3d746507	0.05966666
88	0x3e796b87	0.24357425
89	0xbd879447	-0.066200785
90	0x3cc3f488	0.023920313
91	0xbda0c9bf	-0.0785098
92	0x3e01ee88	0.12688649
93	0xbeb7d1bf	-0.3590221
94	0xbe271e37	-0.1632012
95	0xbdb21902	-0.08696176
96	0xbc903d7a	-0.01760744
97	0x3ce81d3f	0.028334258
98	0xbee70371	-0.45119813
99	0xbee23d11	-0.44187215
100	0xbc9e6c1a	-0.019338656
101	0xbd33e2b0	-0.043917358
102	0x3da2797b	0.07933327
103	0xbd7c8d02	-0.061657913
104	0xbd395b51	-0.0452531
105	0xbe1f2d99	-0.15544738
106	0xbe70b71f	-0.23507355
107	0xbeeaa560	-0.45829296
108	0xbe2013f8	-0.15632617
109	0xbe49b6bc	-0.19698614
110	0xbd90c998	-0.07069701
111	0xbdfa15e8	-0.122112095
112	0xbe8a5f32	-0.27025753
113	0x3df975cf	0.12180673
114	0x3e2c59c9	0.16831125
115	0x3d556fdc	0.05210863
116	0xbdce4a92	-0.10072817
117	0xbe8de708	-0.27715325
118	0xbe9c1717	-0.30486366
119	0xbe8b7229	-0.27235535
120	0x3d8e4b2e	0.06947933
121	0xbe3d10bd	-0.18463416
122	0xbd80e964	-0.06294516
123	0x3e505056	0.20343146
124	0xbdb2b872	-0.087265864
125	0xbe4a4498	-0.19752729
126	0xbdffaf7b	-0.12484642
127	0xbf02c918	-0.51088095
128	0xbef196e8	-0.47185445
129	0x3d383186	0.044969104
130	0xbe728f86	-0.23687562
131	0xbdf7ba6a	-0.120961025
132	0xbdc73dbc	-0.09728572
133	0xbea33853	-0.3187891
134	0xbe4607d1	-0.19338919
135	0xbd43ac83	-0.047771942
136	0xbd1042f9	-0.03522012
137	0x3d915150	0.07095587
138	0xbe3aae8f	-0.18230651
139	0x3d1775fe	0.03697776
140	0x3d58fcec	0.05297558
141	0x3de0a317	0.10968607
142	0x3d5e68b0	0.054299057
143	0xbddb6c6e	-0.10714041
144	0xbe93a75b	-0.2883862
145	0xbd15e7b6	-0.03659793
146	0xbe92d9ad	-0.28681698
147	0xbecb4ede	-0.39708608
148	0xbf24a6fc	-0.643173
149	0xbcd48a04	-0.025944717
150	0xbe89ecb8	-0.26938415
151	0xbe031fd4	-0.1280511
152	0xbeafde56	-0.34349316
153	0x3d8206d9	0.06348962
154	0x3bb55c7d	0.005534707
155	0xbd9770a9	-0.07394535
156	0xbcbedd62	-0.023298923
157	0xbddb4e19	-0.10708255
158	0xbeff0b42	-0.49813277
159	0x3dac8417	0.08423632
160	0xbe9a9e9e	-0.3019914
161	0xbda28527	-0.07935553
162	0xbdad51f1	-0.08462895
163	0xbf163292	-0.58670914
164	0xbe117791	-0.14205767
165	0xbea891ed	-0.32923833
166	0xbde13ab1	-0.109975226
167	0xbdef842e	-0.11695133
168	0xbc093024	-0.008373294
169	0x3de39043	0.111115
170	0x3d28d760	0.041221023
171	0xbc75c8f8	-0.015001528
172	0x3d9ce5d4	0.07661024
173	0xbd778c5d	-0.060436595
174	0x3db0bc81	0.08629704
175	0xbe422674	-0.18959981
176	0xbed2ea7f	-0.4119453
177	0xbe49a616	-0.19692263
178	0xbbf8e5f0	-0.00759577
179	0x3d400117	0.04687604
180	0xbe08bc49	-0.13353075
181	0xbe009aef	-0.12559102
182	0xbc24666c	-0.010034185
183	0x3db72263	0.089421056
184	0x3ea8ce7c	0.32970035
185	0xbd123aa3	-0.03570045
186	0xbe863d0b	-0.26218447
187	0x3d820154	0.063479096
188	0xbda78c50	-0.08181059
189	0xbdc86d46	-0.09786467
190	0x3de0780d	0.10960398
191	0x3ecb8a5b	0.39753994
192	0x3c2ec444	0.010666911
193	0xbd393c63	-0.045223605
194	0x3e5242c6	0.20533285
195	0xbe10a871	-0.14126755
196	0xbb7a80be	-0.003822371
197	0xbe80b287	-0.25136206
198	0x3be6b7ee	0.007040969
199	0xbec2104e	-0.37903064
200	0xbf00f497	-0.50373214
201	0xbe2b1663	-0.16707759
202	0x3ccd8afb	0.025090685
203	0xbec35bb3	-0.38155898
204	0xbe93560b	-0.28776583
205	0xbe818c48	-0.2530234
206	0xbed8b45c	-0.42325103
207	0xbe20a323	-0.15687232
208	0xbea387b6	-0.31939477
209	0x3d58a12b	0.052888077
210	0xbdbd516f	-0.09244048
211	0xbe3dcc4e	-0.18534967
212	0x3e6fb349	0.23408236
213	0xbf082800	-0.53186035
214	0x3d9bed37	0.076136045
215	0xbecf8a40	-0.40535164
216	0x3dbec57c	0.09315011
217	0x3e38dba9	0.18052544
218	0xbe619eeb	-0.22033279
219	0xbec2c229	-0.38038757
220	0xbd3d9474	-0.046284154
221	0xbbdf905b	-0.0068226284
222	0x3e4a6da7	0.19768392
223	0xbec3844d	-0.38186875
224	0x3e59ee14	0.21282226
225	0xbe5e6984	-0.21719939
226	0xbecaea5d	-0.3963193
227	0xbe1cc02d	-0.15307684
228	0xbe35c2af	-0.17750047
229	0xbd897c8c	-0.067132086
230	0xbeb030b7	-0.34412166
231	0x3da59481	0.080849655
232	0x3cbfc2a3	0.02340824
233	0xbda67986	-0.081286475
234	0xbf279588	-0.6546254
235	0xbddcb33e	-0.10776375
236	0xbd58e307	-0.052950885
237	0x3e2e72b1	0.17035939
238	0xbc97962b	-0.018504223
239	0xbe18114e	-0.14850351
240	0xbdfc78e7	-0.12327748
241	0xbe50e196	-0.20398554
242	0xbe8f4494	-0.27982008
243	0xbe7aa115	-0.2447551
244	0x3e1f2b71	0.15543915
245	0xbe8829ca	-0.26594383
246	0xbcdbad6a	-0.026816089
247	0xbdb9634c	-0.090521425
248	0x3e2d53d4	0.16926509
249	0xbea5b4be	-0.32364458
250	0x3c08adcb	0.008342217
251	0xbe9f5c81	-0.31125262
252	0xbe477507	-0.19478236
253	0xbeabee01	-0.3358002
254	0xbe6864e0	-0.22694731
255	0xbd8cdce9	-0.06878073

network_body._body_endoder.seq_layers.4.bias f4 [256]
0	0x3e8cfb80	0.2753563
1	0xbe48f5cf	-0.19625019
2	0xbe01f18d	-0.126898
3	0xbd9fa75a	-0.07795592
4	0xbe460669	-0.19338383
5	0x3de81462	0.11332013
6	0xbebfe9d9	-0.374831
7	0xbe9edc70	-0.31027555
8	0xbe07f3d6	-0.1327661
9	0xbc79a29a	-0.015236521
10	0xbdb7572f	-0.08952176
11	0xbea7892e	-0.32721847
12	0xbe889b2b	-0.26680884
13	0x3c07e3f3	0.008294093
14	0xbd926a5c	-0.07149193
15	0xbdd56d8a	-0.104212835
16	0xbeb3c304	-0.35109723
17	0xbd6f1877	-0.05837294
18	0xbd2d8889	-0.04236654
19	0x3c3415f0	0.010991558
20	0xbdf8ab11	-0.12142003
21	0xbe744e84	-0.23858076
22	0xbe8adeb2	-0.27123028
23	0x3c874a10	0.016514808
24	0xbe7bcc44	-0.2458964
25	0xbe966a73	-0.2937809
26	0xbe1e32c6	-0.15449056
27	0xbe0a2901	-0.13492204
28	0x3ddf7dd2	0.1091267
29	0xbdd7694b	-0.1051813
30	0x3d0578c0	0.03258586
31	0xbdf49716	-0.1194288
32	0xbddb905e	-0.10720895
33	0xbdefdca7	-0.11712008
34	0x3d94dec1	0.072690494
35	0xbe9018ad	-0.28143826
36	0xbede2d36	-0.43393868
37	0xbd9a9ae1	-0.07549072
38	0x3d65960b	0.056051295
39	0xbb26bff0	-0.0025443994
40	0xbe92633f	-0.28591344
41	0xbe0c5470	-0.13704085
42	0xbd2b6a3e	-0.041849367
43	0xbcb2dc4c	-0.021833561
44	0x3dccaa43	0.09993412
45	0xbe1d07f7	-0.1533507
46	0xbe792296	-0.243296
47	0xbd28dde0	-0.04122722
48	0xbe1dab77	-0.1539744
49	0xbe6e5ed2	-0.23278359
50	0xbde4f91a	-0.11180325
51	0xbe3ea0a7	-0.18615972
52	0xbdc920c8	-0.09820706
53	0x3c09a1ce	0.008400394
54	0xbe1d117e	-0.15338704
55	0xbdf1ba86	-0.11803155
56	0xbe85dd8e	-0.26145595
57	0x3c631b42	0.013861479
58	0xbe2efc11	-0.17088343
59	0xbbcaafd2	-0.00618551
60	0xbe6a3b38	-0.22874153
61	0xbe11c157	-0.1423391
62	0xbdbb4c9b	-0.09145471
63	0xbc2c78fd	-0.010526893
64	0x3c3becf7	0.011470071
65	0xbe7806cd	-0.24221344
66	0xbe94dabf	-0.2907314
67	0xbe93c679	-0.2886236
68	0xbe0bafd2	-0.13641289
69	0xbea7aa99	-0.32747343
70	0xbe63f306	-0.22260675
71	0xbdefc443	-0.11707356
72	0xbe8444d4	-0.25833762
73	0xbe8c9a2f	-0.27461383
74	0xbdee0e9a	-0.11623879
75	0xbe012a3b	-0.12613766
76	0xbe97f7fc	-0.29681385
77	0xbe932a66	-0.28743285
78	0x3e2e132e	0.16999504
79	0xbe3db54a	-0.18526188
80	0xbee2e5bc	-0.44315898
81	0xbe607827	-0.21920834
82	0xbc52f49e	-0.012875704
83	0xbc89c491	-0.016817363
84	0xbde7aef6	-0.11312668
85	0xbcae6e2b	-0.021292767
86	0xbe0351ff	-0.12824248
87	0xbdc4ba04	-0.09605792
88	0x3cc1f64b	0.023677012
89	0xbd518b95	-0.051158506
90	0xbe53ed3f	-0.20695971
91	0xbde95f13	-0.11395087
92	0xbe298333	-0.16553955
93	0xbdd3e50e	-0.10346423
94	0xbe3869f9	-0.18009175
95	0xbebccb8e	-0.3687405
96	0xbdd185f9	-0.102306314
97	0xbe2c7e79	-0.1684512
98	0xbdbcb684	-0.092144996
99	0x3d8d517d	0.06900308
100	0xbe15143d	-0.14558502
101	0xbe78d337	-0.24299322
102	0xbe3d022d	-0.18457861
103	0xbd11fa3c	-0.035639033
104	0xbe041f5a	-0.12902585
105	0xbea99821	-0.33123878
106	0x39901b28	0.00027486053
107	0xbe3513c4	-0.17683321
108	0x3e1b8256	0.15186438
109	0xbdba5f90	-0.09100258
110	0xbe41288e	-0.18863127
111	0xbd6f261f	-0.058385964
112	0xbe14f624	-0.1454702
113	0xbda474fe	-0.08030127
114	0xbea77b1b	-0.3271111
115	0xbe6098b3	-0.2193325
116	0xbe72cd92	-0.23711231
117	0x3d083e51	0.033262555
118	0xbdd2d759	-0.102949806
119	0xbcc140c0	-0.023590446
120	0x3e286294	0.16443855
121	0xbb7b8e29	-0.0038384295
122	0xbea5fe1e	-0.3242044
123	0x3dbcff0a	0.09228332
124	0x3e6d1b0f	0.23154853
125	0x3cfee02f	0.031112758
126	0xbe728eb6	-0.23687252
127	0xbdb5d9a9	-0.08879406
128	0xbeac7c6c	-0.33688676
129	0xbe1eacdd	-0.1549563
130	0xbddacbd5	-0.10683409
131	0xbdffe470	-0.12494743
132	0x3cecc0aa	0.028900463
133	0xbe0c7361	-0.13715889
134	0xbe902e94	-0.28160536
135	0x3e20b42d	0.15693732
136	0xbec8c5ff	-0.3921356
137	0xbe08a669	-0.1334473
138	0xbe9c6b37	-0.30550548
139	0xbe4fd8d4	-0.20297557
140	0xbbf712dc	-0.00754009
141	0xbe4ad70d	-0.19808598
142	0x3e3bf853	0.18356447
143	0xbcf483da	-0.029848028
144	0xbdfe8f06	-0.12429623
145	0xbe9517e8	-0.29119802
146	0xbd929eb5	-0.07159177
147	0xbeae68e2	-0.34064394
148	0xbbf228ef	-0.0073901336
149	0xbdf6f03b	-0.12057539
150	0xbe9fbd8a	-0.31199294
151	0x3d28a052	0.04116852
152	0x3d2901d8	0.041261524
153	0xbda65b92	-0.081229344
154	0xbe1c0f80	-0.15240288
155	0x3dbf5b90	0.09343636
156	0x3dc9f969	0.09862024
157	0xbe42b8af	-0.19015764
158	0x3d2fa7af	0.042884525
159	0xbe8f8362	-0.28029925
160	0x396e83ed	0.00022746595
161	0xbe086aa7	-0.13321935
162	0xbe50350c	-0.20332736
163	0xbe94e153	-0.2907816
164	0xbe83f628	-0.2577374
165	0xbc9187c1	-0.017764928
166	0x3da42b42	0.08016063
167	0xbdb0c90d	-0.086320974
168	0xbd1c4a47	-0.038156774
169	0xbd3a272c	-0.045447513
170	0xbe98cafb	-0.29842362
171	0xbd57318d	-0.05253749
172	0xbe95f3de	-0.29287618
173	0x3cf84486	0.030306112
174	0xbe364d14	-0.1780284
175	0xbe618f8c	-0.22027415
176	0xbe28a98c	-0.16470927
177	0xbe6ed81f	-0.23324631
178	0xbe1f5bd3	-0.15562372
179	0xbebea406	-0.37234515
180	0xbe73cb5f	-0.23808049
181	0x3e4ef52b	0.20210712
182	0xbe44c1e2	-0.19214585
183	0xbdfe515b	-0.12417861
184	0xbd7e8c8b	-0.06214575
185	0xbe34918e	-0.1763365
186	0xbe438aea	-0.1909596
187	0x3d995d31	0.07488478
188	0xbe9e08c3	-0.3086606
189	0xbdd092d9	-0.10184259
190	0xbe89f0ce	-0.26941532
191	0x3c6600d8	0.014038287
192	0xbe7a91d3	-0.2446969
193	0xbe4af06d	-0.19818278
194	0x3d13b502	0.036061294
195	0xbd1c7129	-0.038193855
196	0xbe2f0659	-0.17092265
197	0xbe247c8c	-0.16063136
198	0xbe60b7a2	-0.2194505
199	0xbe546f33	-0.20745544
200	0xbe55ad73	-0.20866947
201	0xbd855f55	-0.06512324
202	0xbeb0cb84	-0.3453027
203	0xbdc1db7e	-0.09465693
204	0xbe5a77d6	-0.21334776
205	0xbde1ee88	-0.11031824
206	0xbe82a9ad	-0.25520077
207	0xbdd7acd9	-0.10531015
208	0xbde5b3bc	-0.11215922
209	0xbce62e30	-0.028098196
210	0xbe2268b9	-0.15860261
211	0xbe5b1716	-0.21395525
212	0xbd76baac	-0.060236618
213	0xbe761b24	-0.24033791
214	0xbe52a519	-0.20570792
215	0xbde30c77	-0.11086362
216	0xbdfad8ee	-0.12248407
217	0xbc22b76f	-0.009931429
218	0xbc8941a0	-0.016754925
219	0xbd9dfe9f	-0.07714581
220	0xbbcee2cd	-0.006313658
221	0xbe8b5996	-0.27216786
222	0xbe067511	-0.13130595
223	0xbe847ab0	-0.25874853
224	0xbda78a8a	-0.08180721
225	0xbd6105d3	-0.054937195
226	0xbe94d6e0	-0.29070187
227	0x3d6fecb8	0.058575362
228	0xbdefce21	-0.11709238
229	0xbebcf20c	-0.36903417
230	0xbe370015	-0.17871125
231	0xbdbfe026	-0.09368925
232	0xbe1f6a06	-0.15567788
233	0xbe40ccf8	-0.1882819
234	0xbd390616	-0.04517182
235	0xbcf0b013	-0.029380834
236	0xbe2df940	-0.16989613
237	0xbe72f017	-0.237244
238	0xbf014282	-0.5049211
239	0x3d3f2b1b	0.046671968
240	0x3d96436e	0.0733708
241	0x3d722897	0.05912074
242	0xbdb53576	-0.088480875
243	0xbe84b98a	-0.25922805
244	0x3da5cd79	0.080958314
245	0xbe128b18	-0.14310873
246	0xbe367794	-0.17819053
247	0xbe044a67	-0.12919007
248	0xbe7d474a	-0.24734226
249	0xbeace74b	-0.33770213
250	0xbd987710	-0.07444584
251	0xbde0395b	-0.1094844
252	0xbd4b016b	-0.0495619
253	0xbd343cec	-0.044003412
254	0xbe65727f	-0.22406958
255	0x3dd61d73	0.10454836
