src/pleaseland/onnx_models/DroneLanding-legacykrac2023-2.onnx (onnx, 542355 bytes, 12 tensors)

48 f4 [6]
00000000: b839 a13e 714e 013f 1bb3 a03e 03e2 5c3f
00000010: 0496 2240 7582 5b3f
0.31489348 0.5051032 0.31386647 0.86282367 2.5404062 0.85745937

action_model._continuous_distribution.log_sigma.bias f4 [3]
00000000: 5908 b0be 2bd3 c9be a6ec e6be
-0.3438137 -0.3941892 -0.45102423

action_model._continuous_distribution.log_sigma.weight f4 [3, 256]
00000000: 837f 643d 69ad 103d 5c73 823d f384 cd3c
00000010: 2676 cb3c cee5 f93c eddb 583b d695 733b
00000020: 01b1 a8bd bb7e a73d 7cc9 833c 65ce f03c
00000030: ba2d 413d b68b 03bc 0c3e d03d 57d8 04bd
00000040: 2fd5 cc3c 584d 883d 26ba 313c 7a5e c33d
00000050: ede2 eabc 1d92 40bd fc61 f8bd c1b3 603d
00000060: 42ea 17bd f350 2c3d 8b2d edbc bd05 1a3d
00000070: 01e3 883d 81e5 193c 91fc a53c f811 9b3b
00000080: d73b e43b 4b0b 893d e37d f5bb 2e92 9bbc
00000090: aaf7 403e 3422 1c3e 6b1b b83c ae82 09bc
000000a0: 8b73 06bd 0e3a 593c 7578 493d e1d2 d2bb
000000b0: 2673 c23b b684 dcbc 42ac d53c bc30 f83c
000000c0: f75b e73a 35d8 f83c 9f03 40bd 49ab 84bb
000000d0: a217 223d 44b5 0bbe f8fc 253d a5f1 123d
000000e0: 7779 3f3b 578d 5bbd fc1f 043d 8140 abbe
000000f0: 5ec2 9abc 2d5c f33b 04e3 d6bc e546 603d
00000100: 2d5f d13c 9b88 6e3d 4086 c7bc b1ea 8d3c
00000110: 0cba fe3c 730f 713c 45fb 223d 536c f5bd
00000120: 4672 bf3c 609e 47bd 7b74 d43c 7f3f 8dbc
00000130: 2c3a d63c 2721 223d fd18 c1bb dd83 2fba
00000140: d421 153e c4f1 5cbd 946c 0f3d f0d1 ff3d
00000150: e3d7 e8bc 90cf 953d 9f82 443d 5aa5 cabd
00000160: d6b9 e43c ad72 db3a 7794 0b3d 147d e63c
00000170: 9a73 30bc 4b1c d63d dcd9 933d 4222 353d
00000180: f041 85bd 8642 313d a22f 803d e85b c83d
00000190: fcf3 e93c 7409 a73c 23be 873d a1d7 12bd
000001a0: 300e ba3d 6626 bb3c d696 ccbc 01b7 853c
000001b0: 6618 0a3c 7093 44be 4ddd 003e 9cda c33d
000001c0: edad 1e3e aee8 b4bc 1329 0cbc 310e 873e
000001d0: f8be bd3d 8f05 44bc c6df d1bc 8da7 a8bd
000001e0: 469c 153c c3a5 c6bc c58d 5e3d 9b4a 433d
000001f0: c321 37bc 2cd0 0e3d 1fd8 e73b 2ddc 433c
00000200: f851 e63c cdd3 08bb a96d 113d 80e7 e5bc
00000210: 4614 f63c fa9f ccbc c2fe 183d db3c 2a3e
00000220: 9884 1f3c d898 11bd d2ef 3a3d da6b 81bd
00000230: 23dc a8bc 886f 9b3d 4551 febd 15dd c6bc
00000240: 9e76 333d e3ea 593a 223f e0bc 3e22 adbd
00000250: 416f a43c 275b 2d3c 768b fe3a efee c03d
00000260: 1a50 7b3c 5c93 f1bc 63c9 643d 0660 c83e
00000270: 5ed5 b23e 7c13 fcbc ecc1 593d 15bd 243c
00000280: 6fa8 943d 3ac8 783b 9447 adbd 4abb 1037
00000290: dbc7 bcbb cefd 5f3e 4fe6 84bd 27e0 15be
000002a0: 33af 923d 5bbb 9bbd 9142 eabc e017 2ebc
000002b0: f5e4 86bc a30d 5ebd df71 e73c 2f9a 793d
000002c0: ca7c 053d 6d28 cf3c 1305 003d 5be3 513d
000002d0: d0cb 383d 3808 0d3e 1834 89bc bbe3 633e
000002e0: 3dc8 243e 3aa8 ccbc cbdb f73c f50e 053e
000002f0: 7329 973d cbbd 453d 08c4 543e 675a e93c
00000300: 2cd6 43bd e39e da3c 08d2 553d d25a de3c
00000310: 4f90 7abc 97d4 98bd 630d 68b8 fd5a b73c
00000320: 74da 0a3c a737 cabc b701 a2bd 4215 e33c
00000330: 3eb5 cb3c c5d3 afb9 82d3 d4bc 0ce0 693d
00000340: 8d4b 18bd 9c9b ae3c e706 8c3d 9e82 003d
00000350: 191c e6bc 5ce6 8fbd dae8 5dbc 88e5 2d38
00000360: 9a1c e73c f652 183d 111b 8739 9fa0 fe3c
00000370: 02a3 e53c d1f8 9dba e588 45bd 4a28 f0bb
00000380: 48b8 a13d 9003 563d 9cba dabd 2b59 803c
00000390: 35ff 06bc 9954 793d b659 aa3c deca 5e3c
000003a0: 4b70 a83c c420 adbb 4cdc f43c 5e61 40bd
000003b0: dae3 52bc 5b16 83bd 9649 6b3d 587a e13c
000003c0: f339 16bd d3fc 733b 60a2 8e3d 0a0e 6c3b
000003d0: e0e0 2cbc dbfe a2bb a82d 373d 2c91 4f3d
000003e0: 5576 213d ef5a 273d 2c7e 74bc de56 fe3c
000003f0: 6008 753d 6e35 35bd a56b 8d3d 57d6 833b
0.055785667 0.035321627 0.06369659 0.02508781 0.024836611 0.030505087 0.003309007 0.0037168167
-0.08236886 0.08178469 0.016087286 0.029395292 0.04716275 -0.008028915 0.101680845 -0.03243288
0.025003998 0.06655377 0.010847604 0.09539504 -0.02867266 -0.047014344 -0.12128064 0.054858927
-0.03708864 0.042069387 -0.02895238 0.03760313 0.066839226 0.009393097 0.020262035 0.0047323667
0.0069651413 0.06691607 -0.0074918135 -0.018990602 0.18844476 0.15247422 0.022474011 -0.008392973
-0.032825034 0.01325847 0.049187142 -0.00643383 0.005934137 -0.02691875 0.026083115 0.030296676
0.0017651309 0.030376533 -0.046878453 -0.004048739 0.03957332 -0.13643366 0.040524453 0.03587498
0.0029216686 -0.05360159 0.032257065 -0.3344765 -0.01889151 0.0074267597 -0.026231296 0.05475511
0.025558079 0.058235746 -0.024356008 0.017323824 0.031094573 0.014713156 0.03979041 -0.11983552
0.02336992 -0.048735023 0.025934448 -0.017242191 0.026150785 0.039582398 -0.0058928714 -0.00066953694
0.14563686 -0.053941503 0.035015658 0.12491214 -0.028423255 0.0731498 0.047976132 -0.098948196
0.027920645 0.001674255 0.034077134 0.028135814 -0.010769749 0.10454615 0.07219288 0.044222124
-0.06506717 0.043276332 0.06259085 0.09783155 0.028558724 0.02039025 0.066280626 -0.03585017
0.09084737 0.022845458 -0.024974268 0.016322615 0.008428669 -0.19196868 0.1258442 0.09563181
0.15496035 -0.022083607 -0.008554715 0.26378015 0.0926494 -0.011964216 -0.025619399 -0.08235083
0.009131497 -0.024248963 0.05433442 0.04767857 -0.011177483 0.034866497 0.007075324 0.0119543495
0.028115258 -0.0020878196 0.03550497 -0.02806449 0.030038964 -0.024978627 0.03735233 0.16624777
0.009736203 -0.035546154 0.045638867 -0.06319399 -0.020612782 0.07589632 -0.12417845 -0.024275342
0.043814294 0.0008312894 -0.027373854 -0.08453797 0.020072581 0.010580814 0.0019420225 0.09420573
0.015338922 -0.029489212 0.05585612 0.3913576 0.3492841 -0.03077101 0.053163454 0.010054846
0.07258689 0.0037961141 -0.08460918 8.6266755e-06 -0.0057611293 0.21874163 -0.064892404 -0.14636289
0.07162323 -0.076040946 -0.028596194 -0.010625809 -0.016466597 -0.054212224 0.02825254 0.060938057
0.03258971 0.025287831 0.03125484 0.051242214 0.045116246 0.13772666 -0.016748473 0.22254841
0.1609201 -0.02498256 0.030256173 0.12993987 0.07380953 0.048276704 0.20777905 0.02848549
-0.047811672 0.026687091 0.052202255 0.027142916 -0.015293195 -0.07462423 -5.5325578e-05 0.022382254
0.008474935 -0.02468474 -0.07910483 0.027720097 0.024866696 -0.00033536382 -0.025979761 0.057098433
-0.037181426 0.021314435 0.06837254 0.031374566 -0.02808957 -0.070263594 -0.013544286 4.1460182e-05
0.02821188 0.037188493 0.00025769373 0.03108245 0.02803183 -0.0012052302 -0.048226256 -0.0073290216
0.07896477 0.05224949 -0.10680124 0.015667519 -0.008239557 0.060871694 0.02079473 0.013598172
0.020561358 -0.005283447 0.029890202 -0.046967857 -0.012871707 -0.06400748 0.057443224 0.027524158
-0.03667636 0.0037229552 0.06964564 0.003601911 -0.010551661 -0.004974229 0.044721276 0.050675556
0.03941949 0.040858205 -0.01492266 0.03104728 0.05982244 -0.044240408 0.06905297 0.004023354

action_model._continuous_distribution.mu.bias f4 [3]
00000000: 5716 023c 5e00 b1bc 966d 043d
0.007939897 -0.02160662 0.03233107

action_model._continuous_distribution.mu.weight f4 [3, 256]
00000000: 489b c6bb b324 99bd b223 85be 719b 0c3e
00000010: a960 a6bb 185c 663e d57f 68bc 69a6 993e
00000020: a3fb c83d ca98 51be 571e 4abe 822d a43d
00000030: 7421 8cbd d5b4 ca3c 11c4 e8bc ebd5 c83d
00000040: 4365 b23d 0acc 813e 6e24 c33c aeda 02bd
00000050: 56ee b9be 8a11 fabd bef0 843e ce12 c53e
00000060: 7904 723e d40e cdbd d0a7 093d 854f fe3c
00000070: 02bc 253e 8f9f 02be 7ae0 4a3d d27b a53d
00000080: 9232 1b3d 44a9 1c3e ccad 613d a39c 063e
00000090: fa08 523c 565c 58bc 457a 253c 9dd9 ae3c
000000a0: 9aaa 77bd 2422 79bd 7eb6 30bc f4ec 02bc
000000b0: 5038 0e3c 042c 223d 6653 4ebd 54b9 7b3d
000000c0: 8cf9 803d 21d5 883c 9ba0 d639 a18b 483c
000000d0: 7e46 763d 6c15 853e e098 783d b9ab 8dbd
000000e0: f70f 87bc efd0 953c 034e 67bd 5fce 31bc
000000f0: 4f76 21bd ae9b 23bd 0eab bb3c 8cf0 51bd
00000100: e7a8 863b 8db7 203c c24c 213c 8ae8 51bc
00000110: db34 aa3c fabf cabb 8a06 c43d 3f07 e5bc
00000120: 951e 633c 030a ad3c bc8f b7bc 653f e53d
00000130: 5387 2dbd cab1 1cbc e0a4 d23c 7368 cb3c
00000140: 7719 d33d 1f80 afbd ecf6 0abe 54d1 513c
00000150: 7bb0 9e3d 3b64 93bd 85c2 72bd b2a0 153e
00000160: df2b da3d 42ab 07bc b02a a6bd 2a8e 013e
00000170: f7af cc3b 0233 28bc f2f5 2fbd fbde 37bd
00000180: 9b2d 38be ada3 98bd 651b 65bc 3876 3ebc
00000190: 5984 ea3d 5772 d3bc 715b f9bc 5273 4a3c
000001a0: 4ec0 833d 9c24 0dbd 121e 733d c286 ef3d
000001b0: adf9 82bb 88d8 0bbc 3ea0 433d 8267 c23d
000001c0: 7cbd f4bd d7ba a6bd 1a1f 8dbd 5486 6ebc
000001d0: b78e ddbd 9c53 973c 66b6 b8bd b14f 753e
000001e0: 709e 4f3c 2da4 793c 411a 2a3e dbf1 48bd
000001f0: 4017 2bbd 9d81 9e3d 3555 e2bc 938a cbbc
00000200: eb87 74bb 798e b1bd 71c1 c5bd 59bd 4fbd
00000210: 899d c2bd 6c32 adbd 3be1 6a3d 4cd7 333e
00000220: 120e 883d 111f b1bb 7e3d a33d c899 f5bc
00000230: 0151 12bb 20db 92be 20ac 033e a015 71bd
00000240: 565d 78be 93d1 9cbd c91c 8d3c 2699 fcbb
00000250: f2d6 d23d 343d 49bc 9128 97bd 4470 15bc
00000260: 5cb2 ec3b 8cf9 283d e480 553c 8b4b 1bbc
00000270: 0242 b0bd cbc7 64be 6ee7 fd3b deb5 98bc
00000280: 6823 6abe 9ed8 43be 2add 133e 19d8 21bb
00000290: a849 3b3d d6ef e7b9 b08c 8ebd 84d6 bd3d
000002a0: 4b13 45bd 0a49 83bc d4c9 9bbd 0a9a cebc
000002b0: 77de c53c 16f7 8c3b 9d4b 1abd 9c98 243e
000002c0: a9f4 803d 8db7 873b bb99 93be 14c2 a63c
000002d0: 0319 a03d 4dda c63c c151 303c 1f43 003b
000002e0: d134 cfbc d098 b23e b06e b2bd 2523 d53d
000002f0: 9f5f 713d 4690 e03d 44e0 1c3c 0cca 203e
00000300: 7ba0 813c 0795 b4bd bb2c 5fbd 3900 0f3e
00000310: 816d cc3c 5cd9 7a3e e1fa bebb 63e7 a23d
00000320: 10a5 bbbb 0fe7 7d3e dc78 35ba e4cc 61bd
00000330: 8738 1cbd 87a8 88bd 918b b83c e6fb adbe
00000340: de70 813d 0589 6bbe c0ce 163e 9687 e13d
00000350: 8b4e de3b 4cbe 9f3c 15ee 72be eadf 893c
00000360: ae28 283e 8e5c 08be fb1c 16bb 4711 9c3d
00000370: 8e5c 1fbe 2777 dbbd c1b2 ffbd fbdb c53c
00000380: cfbe 473d 7acf ff3c 47d8 a83d 95ed 013e
00000390: 69c3 3c3d 2501 e1bc 9a58 e83d a4ea a1bc
000003a0: e193 583d d0c5 dc3d d489 99bd c702 febd
000003b0: 08b6 973d 2eb3 f83b 0c0f fb3d 5a29 b13c
000003c0: 08ce 9f3c 43a6 f9bc 0bef 31be 72ae 003d
000003d0: b292 38bd 6244 1bbd d8ff cdbc 899f bc3d
000003e0: 5ed1 10be 199d 44bd 8ba7 b9b9 855c ec3d
000003f0: aca5 90bd 73b0 72bc c111 5f3d 5c8b 893d
-0.0060609914 -0.07477703 -0.26003796 0.13731171 -0.0050774408 0.22496068 -0.014190634 0.30009773
0.09813621 -0.2046844 -0.19738136 0.080164924 -0.06842318 0.02474443 -0.028413804 0.098064266
0.087107204 0.25350982 0.023821082 -0.03194683 -0.36314648 -0.122103766 0.25964922 0.3849091
0.23634519 -0.10012594 0.033607304 0.031043777 0.16185 -0.1275618 0.049530484 0.080802575
0.037890024 0.15298945 0.055097386 0.1314569 0.012819523 -0.013205608 0.010099952 0.021344
-0.060465433 -0.060823575 -0.010785697 -0.007991064 0.008680418 0.039592758 -0.050372504 0.06145604
0.06297597 0.01670319 0.0004093692 0.012240321 0.06012582 0.25992906 0.060692668 -0.06917519
-0.016487105 0.018288104 -0.056470882 -0.010852425 -0.03941947 -0.03994339 0.022908714 -0.051254794
0.00410949 0.009809387 0.009844961 -0.012811789 0.020777157 -0.006187436 0.0957156 -0.027957557
0.013862272 0.021122938 -0.022407405 0.11193732 -0.042365383 -0.009563873 0.025713384 0.024830079
0.103075914 -0.08569359 -0.13570756 0.012806255 0.07748505 -0.07196852 -0.05926754 0.14612082
0.10652899 -0.008280577 -0.08113611 0.12651888 0.0062465626 -0.010266067 -0.04295916 -0.044890385
-0.17986147 -0.07453094 -0.013983582 -0.011624865 0.114510246 -0.025811357 -0.03043911 0.012356596
0.064331636 -0.03445874 0.05935485 0.11695625 -0.003997049 -0.008535512 0.04776024 0.09492399
-0.11950204 -0.081411056 -0.06890698 -0.0145583935 -0.10818236 0.018472485 -0.09019165 0.23956181
0.012672052 0.015236896 0.16611578 -0.049058776 -0.04177022 0.077395655 -0.02762852 -0.02484635
-0.0037312459 -0.08669753 -0.09656037 -0.050717685 -0.09502704 -0.08456883 0.057343703 0.17562598
0.06643309 -0.0054053147 0.07970713 -0.029980555 -0.0022326114 -0.28682804 0.12858629 -0.058858514
-0.24254355 -0.076571606 0.01722564 -0.0077086864 0.10294904 -0.012282658 -0.07380784 -0.0091210045
0.0072234105 0.04125361 0.013031218 -0.00947846 -0.0860634 -0.2234184 0.007748536 -0.018641409
-0.22865069 -0.19125602 0.14439836 -0.0024695455 0.04572454 -0.00044238445 -0.06960428 0.09269431
-0.048114102 -0.016026039 -0.07606855 -0.025219936 0.024153931 0.004301916 -0.037669767 0.16073841
0.06296665 0.004141754 -0.28828225 0.020356216 0.078172706 0.024274016 0.010761679 0.0019571257
-0.02529374 0.34882212 -0.08712518 0.10407094 0.058929082 0.10965018 0.0095749535 0.15702075
0.015823593 -0.08817487 -0.054486018 0.13964929 0.02495456 0.24496979 -0.005828247 0.0795429
-0.005726464 0.24795173 -0.00069226115 -0.05512704 -0.038139846 -0.06672769 0.022527488 -0.33981246
0.06320356 -0.23001488 0.14727306 0.11012189 0.0067842654 0.01949992 -0.23723634 0.016830403
0.16421768 -0.13316557 -0.0022905457 0.07620483 -0.1556265 -0.10716086 -0.124852665 0.024152746
0.048765954 0.031226862 0.08244377 0.12688287 0.046084795 -0.027466366 0.113450244 -0.019765206
0.052875403 0.10779917 -0.07496992 -0.124028735 0.074077666 0.0075897193 0.12258729 0.021626163
0.019507423 -0.030474788 -0.17376344 0.031416364 -0.045061775 -0.03790701 -0.02514641 0.092101164
-0.14142367 -0.048001382 -0.0003541078 0.11541084 -0.070628494 -0.014812577 0.05446029 0.06716034

network_body._body_endoder.seq_layers.0.bias f4 [256]
00000000: cb6a 083e a36b 0abf 34e5 3b3e 2da1 3ebc
00000010: 09a6 e2be 05d8 57be fba5 d03e 98b4 853d
00000020: 2f3a 41bc bc8d 13be fa3a 943e 3d6e 5fbe
00000030: 5f16 2dbd e18c d93d f968 7a3e d2d3 10be
00000040: 6bf8 61be e504 8a3c 7dc6 9e3d d437 593d
00000050: 70ab 103e 9a0f 8a3d 2d02 9ebe 9f3b c43c
00000060: a66c bebd de0a fabd 139f 8f3e 3f88 243e
00000070: 6d77 eb3e f3ba d23d 48ab 2c3d 89d4 27be
00000080: 8beb 1cbe da9b f13d 1ff8 d5be b896 bf3d
00000090: 8b1e 833e d208 12bf b0a6 21bf 8e5b 2abd
000000a0: 35cf fbbd f96a 0bbd 915c 353e 20fa ae3d
000000b0: cb24 4b3e 6754 8e3e cff6 863e d17f 92bc
000000c0: 37a2 3d3c 28f1 27be cf61 80be ab80 48bc
000000d0: b553 80be 260c 403e 971d b23c cf84 3b3e
000000e0: 8a8d 843d bfcb b8be f1d7 1b3e 715e cf3c
000000f0: 641e 0cbf fdd1 97be 46f6 2b3e 588f d9bd
00000100: 1780 793e e738 9b3e 401c aabd 42b4 cb3d
00000110: 1303 82bd c357 833e 4641 5a3e 7a91 ddbd
00000120: feec 71be b81f 9e3e f45a 353e 8f24 1b3e
00000130: 0dbf bd3e 403c da3d e86b 5f3e e668 1f3e
00000140: 610b 8cbe eaf1 37bd 15e8 b13e 4b67 d5bc
00000150: b4f8 ca3e 9753 37be 402f 91be fdb3 b5bd
00000160: f792 383e 6ec9 5e3e ca2a ba3c 7703 adbc
00000170: dac3 1b3e e702 7e3d 3fe5 f6bd d4ea e8bd
00000180: 24fb 253e ea30 b7be a5c4 ccbc b0b9 efbd
00000190: 8236 1fbd e4df 87be aae8 6bbe 028b 883d
000001a0: 3b30 14be b3ca 7bbd 03b0 1cbf fd49 a63e
000001b0: 1c08 2f3e b48b 2a3e 0a20 86be 18c0 99bd
000001c0: 8966 2cbe 0215 2e3d 6273 95bd 9b8e a0bd
000001d0: 499d 17bd b8e4 10bf ff45 eb3d ec5c 783c
000001e0: ddbd db3e ca36 183d baf8 48be e766 62be
000001f0: cee8 af3d 7819 073e 8788 00be 985f cc3d
00000200: 5a61 a73e de19 57be 0807 a8bc a667 abbe
00000210: 90e1 083e 0a85 0d3f 7225 b83e f47b 913d
00000220: 3b7c d63e b2ac 203b 891b 2f3d 8a41 a5bd
00000230: 05a4 ffbe 532e 12be 5ce4 1f3d e070 aabe
00000240: cb01 a13d 9dd8 233d 6712 103e 3f47 473e
00000250: 78f6 f8be 548d f13c a097 e23d 028c e83e
00000260: c7c7 a33e fe61 583d 8a2b b0be b360 18bf
00000270: 3055 c7be 360d 07bf 4311 093e 38b3 88bd
00000280: 710c 74be ab0f fcbc a326 a9be 0945 3f3e
00000290: 64a4 dfbe b2fe a63e 8031 86be f2bf f9bd
000002a0: e2c7 a93c b2ad 2e3d 23a9 6cbe 2947 133e
000002b0: 1798 60be ba14 98be da98 8c3e c225 bebe
000002c0: c239 263e 593a d43d 7ad3 df39 e2f7 0b3e
000002d0: 9447 ae3e c37b 253e c45b 8ebe d6ff 2b3e
000002e0: afd9 f53d a2f6 cebe 8618 c2bd 2486 9b3d
000002f0: 1636 c9be 7db2 8cbd e04d c53e 2362 893e
00000300: 9c14 763d 9ebe bcbd 53a3 753e f7ba 5fbe
00000310: ff27 163e 7d79 abbe a935 163e 4aef 5e3d
00000320: daf1 173b 409b 663e 4a29 8ebe 54aa 7a3e
00000330: 6547 fb3e 2f32 0ebe 9eea 9fbb e9f3 0c3e
00000340: 0cf5 103e 515c f2be cabb a9be 6d6d 38be
00000350: a937 28bc 5a82 5d3e d450 b4be 9067 9dbe
00000360: d05d 853e 5b72 5d3e 805c 97bd 761f bebe
00000370: 8dab 1cbe 056f 81bd 6ce4 903d d440 ffbd
00000380: 80db 6c3e 6d68 9ebe 8271 8cbe 1ac7 33bd
00000390: c446 8f3e 7757 a13d cf08 10bd 11c6 3f3e
000003a0: d71b 42be 2641 d2bc 77ee 85be 110e 683e
000003b0: faa2 cdbe 06b1 8bbe bca0 71be b651 4abc
000003c0: 5edf e4be a279 f4bd 535f cebd b276 2abe
000003d0: 4c1d ac3d 9e09 6cbe e891 63be 64a8 593e
000003e0: fb83 68be fdfc 56bc a9d5 393d 3001 1cbe
000003f0: db2e 1fbf 0397 343e b2ff 93be 2cc7 2fbe
0.13321988 -0.5407049 0.18349153 -0.011635107 -0.442673 -0.21078499 0.40751633 0.06528586
-0.011793657 -0.14409536 0.28951246 -0.21819396 -0.042257663 0.10622574 0.24454106 -0.14143303
-0.2206742 0.016848037 0.077527024 0.053031757 0.14127898 0.06741257 -0.30861035 0.02395421
-0.09298067 -0.12209104 0.28051051 0.16067599 0.45989552 0.10289564 0.042155534 -0.1638967
-0.15324228 0.117973045 -0.41790864 0.09354919 0.2560924 -0.5704471 -0.6314497 -0.04159122
-0.12295381 -0.034037564 0.17711093 0.08543801 0.19838254 0.2779877 0.26360175 -0.017883213
0.01157432 -0.16400588 -0.25074622 -0.012237708 -0.25063863 0.18754634 0.021742625 0.18312381
0.06472309 -0.36092946 0.15219094 0.025313588 -0.5473387 -0.29652396 0.16793165 -0.10623044
0.24365269 0.3031685 -0.083061695 0.09946491 -0.063482426 0.25652894 0.21313962 -0.10818763
-0.23625562 0.30883574 0.17710477 0.15150665 0.37059823 0.10656023 0.21818507 0.1556736
-0.2735243 -0.04490844 0.34747377 -0.02605023 0.3964287 -0.1790298 -0.2835636 -0.08872221
0.18024813 0.21756527 0.022725482 -0.021119816 0.1521143 0.062014487 -0.12055444 -0.11372915
0.16209084 -0.35779506 -0.024996111 -0.11705339 -0.038870342 -0.26538002 -0.23037973 0.06667139
-0.14471523 -0.061472606 -0.6120607 0.32478324 0.17092937 0.16654855 -0.2619632 -0.07507342
-0.16835989 0.042500503 -0.07297398 -0.078397 -0.037015233 -0.56599 0.1148796 0.015158873
0.42918292 0.037161626 -0.19626132 -0.22109567 0.08589326 0.1319331 -0.12552081 0.099791706
0.3269146 -0.21005961 -0.020511165 -0.33477515 0.13367295 0.55281126 0.35966069 0.0710372
0.41891655 0.0024516997 0.04275087 -0.08069141 -0.49929824 -0.14275484 0.03903614 -0.33289242
0.0786167 0.0400015 0.1406952 0.19460772 -0.4862554 0.029486336 0.110640764 0.45419317
0.31988356 0.052827828 -0.34408218 -0.5952255 -0.3893218 -0.52754533 0.13385491 -0.06674808
-0.23832871 -0.03076919 -0.3303729 0.18678679 -0.43680108 0.32616192 -0.2620964 -0.12194814
0.020725194 0.042646118 -0.23111396 0.14382614 -0.21933018 -0.29703313 0.27460366 -0.37138182
0.1623297 0.103626914 0.00042691437 0.13668779 0.34038985 0.16160493 -0.27804387 0.16796812
0.120044105 -0.4042254 -0.09477334 0.07593945 -0.39299077 -0.068699814 0.38535976 0.26832685
0.06007825 -0.09216045 0.23988084 -0.21848665 0.14663695 -0.33491126 0.14668907 0.054427423
0.0023184926 0.2252016 -0.27765876 0.24479038 0.49077907 -0.13886331 -0.0048802635 0.1376492
0.14155978 -0.47336057 -0.33151084 -0.18010493 -0.010267177 0.21631756 -0.35217917 -0.30743074
0.26048136 0.21625654 -0.0739069 -0.37133378 -0.15299816 -0.063200034 0.07074818 -0.12463537
0.23130608 -0.30939046 -0.2743035 -0.04389105 0.27983677 0.07878011 -0.03516465 0.187279
-0.18955933 -0.02566583 -0.26158497 0.22661616 -0.40163404 -0.27283496 -0.23596472 -0.012348583
-0.44701666 -0.11937262 -0.100767754 -0.16646841 0.084040254 -0.23050544 -0.22223628 0.21255642
-0.22706597 -0.013121841 0.045369778 -0.15234828 -0.6218087 0.17635731 -0.28906018 -0.17165822

network_body._body_endoder.seq_layers.0.weight f4 [256, 6]
00000000: 96b9 46bf cc70 30bf 2d3a f73e 226a 7a3e
00000010: 7166 e8be ead2 fa3e d22e 44be 3a16 0cbf
00000020: a780 be3e ce93 163e bde0 c33e d2bc 203e
00000030: 3ff6 7f3e 15f2 20bf cc32 763f ea76 763f
00000040: 5b82 a0be c8c5 4cbf 2613 683b b4d7 12bf
00000050: e804 003e 6033 353f e772 87be 4e17 a0bf
00000060: eb9e 873e 3cc3 813e d0a8 e8be f690 7c3c
00000070: 7bcd cc3e cf4f 893e 5837 24bf aead f13c
00000080: f9b0 e63e 1a24 083f c177 103f 05b4 c83e
00000090: 3730 efbd f23f ad3e 91ac 19be 0e7f 463f
000000a0: 3e8d 673e feb7 b0bf de29 bcbd cad7 e43e
000000b0: 5a70 0e3f 1799 70bf d264 81bd eea6 543f
000000c0: 6a3f 90bf 6a23 593f e9f8 e63e 9114 91be
000000d0: 1fd4 d33e 3cf3 e8be 88b4 0a3e c4c6 a9be
000000e0: 45fb e0be 3d1d 3cbf 3b7e d5be 27c9 06bf
000000f0: 9f2c 523d 601d 123e c0af ed3e ca95 d8bf
00000100: 2d09 53be 647e 42bf 565f 1dbe 8ba8 a7be
00000110: ba51 a33e 5e9d 883f 979c c43d 925d d03c
00000120: 55cb 443e cf00 133f b3f9 58be 8830 afbf
00000130: 5114 713d e403 3bbf 2dab a53e 2bc9 c3be
00000140: e2c6 1cbf a2f2 033f a16f 233f 5272 763f
00000150: c8be 573e ee8c 883e f538 02bf 9100 013e
00000160: 291b d73e 27fc 86bf 324b 49bd 0e78 913e
00000170: a4f2 19bf dabf 2fbf 10eb 58bd 3620 97be
00000180: cb28 1ebf ef07 9cbd c01e 85be 0b29 8dbe
00000190: 61cf adbe ed2e 723f cfce 053f 5016 003f
000001a0: 2daa 9ebe 1f1d 75bf bc06 043e 39bb 4c3f
000001b0: ab74 553e 4113 abbd e7b2 2c3e 04e6 5dbe
000001c0: 3e4c 85bf 7ddd 5b3e c281 9dbb 7526 9ebe
000001d0: 07c1 083e b276 103f 7954 c8be 9610 30bf
000001e0: 6c6c e23c d407 453e 7ea2 d8be 0de0 be3e
000001f0: 3ac7 723e ad5a 893e e8b9 2fbe 1fd5 3bbf
00000200: 8901 f53e 3286 4a3f fd8f 58bf 8fd5 db3d
00000210: 88c4 fe3e 7b01 ffbd 054f 8a3e 3103 09bf
00000220: 698f a6be 9b7a 8fbd ac8b 57bf 2d07 3fbd
00000230: f1ca 4cbf 7b17 123f 27a1 1abe ae85 efbe
00000240: 4f7d 85be e752 973e 70cc 95be b831 ec3a
00000250: 79ef 75be f50b 0fbe 5a24 273e 52f4 5fbe
00000260: 0572 063f a357 b5bf cd78 abbe 6f90 513e
00000270: 794e a6bd a8af 2d3f 5ae9 143f 8113 e93d
00000280: 7200 013f 44d7 69bf ba9d 393e fedc 2b3e
00000290: 7277 4a3e 042f ed3f 61d0 8fbc feae 5f3e
000002a0: 0753 9cbd e84b 32be befa 453f 4a5c c53e
000002b0: d4cf 733c c1b7 b53d a42b b8bd 790b fb3d
000002c0: d614 ef3e a066 ab3f 5909 76bf f64c 98be
000002d0: dd6e e83e cd5e 3b3e 4429 213e 0763 97be
000002e0: ec8c 28be 46cb b33f d26f 15be b56b 13bf
000002f0: 5b55 3e3f 5e73 c33e 5b3d 93bc 581d 1abf
00000300: 067d 783c 8f5b b03d 5565 473e ebdb 8bbf
00000310: 5695 72be 4e9b 3abf 1063 c23e f11c 04be
00000320: 753a 6d3f ec48 2e3e d7a5 bd3d 9910 8bbb
00000330: fe66 de3e a9e6 0cbf 1aae 6b3e 3a08 0e3f
00000340: 20f2 3f3f 8494 3cbf a071 1cbf d301 44bf
00000350: 0b11 63be a6b1 25bf 2f9a 65be 3dce f2be
00000360: d428 1cbe 45ed a4be 0fa2 3ebe 4f79 8b3d
00000370: 9769 2bbe 5357 bdbe 586d c9bd acb0 b5be
00000380: dd5f bc3e dcdf 09bd 80ba 893e 4e2d 03be
00000390: 19e4 2dbf 649f 4dbe 2438 173f 0142 55be
000003a0: 4e23 0b3f b9a7 24bf 5af7 8cbe 491b 513f
000003b0: 19b6 20bf 23e9 013f f714 c1be 8532 17bf
000003c0: 9414 3f3e 81ca 0fbf d9aa 60be 7c4f f1be
000003d0: 3cc0 acbd 011c e93e 79d8 863f b232 c43e
000003e0: 9462 663e 3e29 ed3d 9fa5 803e b97c 023f
000003f0: 1c19 cfbd d46f 00be 9be4 653e 1e02 97bf
-0.7762693 -0.68922114 0.48286572 0.24454549 -0.45390657 0.4898904 -0.19158486 -0.54721415
0.3720753 0.1470482 0.382574 0.15697029 0.24996279 -0.6286939 0.9617126 0.962752
-0.31349453 -0.7998929 0.0035411804 -0.57360387 0.12501872 0.7078152 -0.2645485 -1.2507112
0.26488432 0.25344265 -0.45441294 0.015415421 0.4000052 0.26818702 -0.6414695 0.029501762
0.45056894 0.53180087 0.5643273 0.39199844 -0.11679118 0.3383785 -0.15007235 0.7753762
0.22612473 -1.380615 -0.09187673 0.44695884 0.55640185 -0.93983597 -0.06318058 0.83067214
-1.1269352 0.8481966 0.45111778 -0.28336003 0.41372773 -0.45498073 0.1354543 -0.3315946
-0.43941703 -0.73482114 -0.4169787 -0.52650684 0.051312085 0.14269018 0.4642315 -1.6920712
-0.20608969 -0.75974107 -0.15368399 -0.32745776 0.3189829 1.0673025 0.0960018 0.025435243
0.1921819 0.5742311 -0.21189003 -1.3686686 0.058857266 -0.7305281 0.3235716 -0.38239416
-0.6124097 0.51542103 0.6384221 0.9626819 0.21068871 0.2667002 -0.5086816 0.12597872
0.4201291 -1.0545701 -0.049143977 0.28411907 -0.60135865 -0.6865212 -0.052958548 -0.29516762
-0.61780995 -0.07618701 -0.26000023 -0.27570376 -0.3394728 0.94602853 0.5226869 0.50034046
-0.3098921 -0.9574756 0.12893194 0.7997318 0.20845287 -0.08353282 0.16865121 -0.21669775
-1.0413892 0.2147121 -0.004806728 -0.30888715 0.13354884 0.56431115 -0.39126948 -0.6877531
0.02763959 0.19241267 -0.42311472 0.37280312 0.23708811 0.26826993 -0.17160761 -0.7337207
0.47852734 0.79111016 -0.8459471 0.107340924 0.49759316 -0.12451454 0.27013412 -0.53520495
-0.32531288 -0.07005807 -0.841975 -0.046637703 -0.79997164 0.5706708 -0.15100537 -0.46781677
-0.26072165 0.29555437 -0.29257536 0.0018020188 -0.24017133 -0.13969405 0.16322461 -0.21870545
0.5251773 -1.416737 -0.334906 0.20465253 -0.08120436 0.67846155 0.58168566 0.11380673
0.50391304 -0.91344094 0.18126574 0.1678352 0.19772127 1.8529973 -0.017555417 0.21844098
-0.07633024 -0.17411768 0.7733573 0.38546973 0.014881093 0.08872939 -0.08992699 0.122580476
0.46695584 1.3390694 -0.96108013 -0.29746217 0.45397082 0.18297882 0.15738398 -0.2956774
-0.16460007 1.4046409 -0.14593437 -0.5758622 0.7434899 0.38173956 -0.017973593 -0.60201025
0.015166527 0.086112134 0.19472249 -1.0926489 -0.2368978 -0.72893226 0.37966204 -0.12901665
0.92667323 0.17020005 0.09260147 -0.004243922 0.43437952 -0.5503946 0.23015633 0.554813
0.7497883 -0.73664117 -0.6111088 -0.76565284 -0.2217447 -0.64724195 -0.22422098 -0.47422972
-0.1524995 -0.32212272 -0.18616508 0.06810247 -0.16739498 -0.36980686 -0.09835309 -0.35486352
0.36791888 -0.033660755 0.269001 -0.12810251 -0.67926174 -0.20080334 0.5907004 -0.2082596
0.54350746 -0.64318424 -0.27532464 0.8168226 -0.6277786 0.50746363 -0.37711307 -0.5906146
0.18660194 -0.5616837 -0.21940173 -0.47130954 -0.08435103 0.45529178 1.0534812 0.38319927
0.22498542 0.11580132 0.2512636 0.5097156 -0.10112211 -0.12542659 0.22450487 -1.1797521

network_body._body_endoder.seq_layers.2.bias f4 [256]
00000000: a146 05bd 28a9 843e 8a9f 453d 9eca c0bd
00000010: ca69 52be b777 e13d d479 413d 9f62 163e
00000020: 02ea 983d e289 4ebe a932 c73e 5c69 0fbe
00000030: 8a6b 3bbd 2d47 d8bd f796 babd 52fe 7d3d
00000040: d1ed 9fbd 5c33 22be cda6 333e 1fef 1dbe
00000050: 0c96 0cbe 4bc5 dc3d cc9d e9bd b6c8 0c3e
00000060: 4e8a 593d 12dd 063d e0b9 593e 0409 cf3d
00000070: 7462 a23d 1d0d 46be e2ac 68be a141 acbe
00000080: f91a dc3d d6b0 7e3e 2d4f 1abe 1ba3 18bd
00000090: 2379 193e 455b 42be 4051 8cbe 55b5 e03d
000000a0: 0deb 41bd 908b 573d eda2 113e 0d1f 55be
000000b0: 254e 493d 7a49 a1bd 21d6 5b3d 3e73 633d
000000c0: 0ee1 d5bd 0bc9 3ebe 35e3 933c 76c8 c4bb
000000d0: 8f2b 42be 4113 943e ba2c a7bd ffcd 30be
000000e0: 2ce5 28be 4bb7 5bbc 09f9 4bbd 5229 223e
000000f0: 7362 7f3e d91e 8bbe 2add 903e 64ba 9fbe
00000100: 0a46 edbd 7591 773c 57b4 313e 7ae1 2f3e
00000110: 4564 51be 6662 5b3e d1f8 50be ce7a 37be
00000120: 0492 10bc d945 b5bd f91f 2dbe fdab ccbd
00000130: 0ccf b53d 3eac 07bd f1cf 83be 2fbd d03e
00000140: 400a 0e3e d8dd debb 322a 0fbd 795a 89be
00000150: f809 a93c 932a b63c b114 903e 9360 b5bb
00000160: 3090 b73c 0dda 343b 2319 b53d 09ec 19be
00000170: 4c90 61be 8e12 4abc 66ef 983d fdbf a13e
00000180: 414b 9c3e 1adc 99be dd4f 213a 972d 903c
00000190: 5d29 3cbe cfdf 4dbe 4a1d 2e3e a4d7 02bd
000001a0: 0232 863e 9c5a 4bbe 2663 353e 071b 59be
000001b0: bc5d d63d 9b66 4abe 087a d8bd a192 9fbe
000001c0: c6d7 21bd 79ff b0bd a493 403e 1928 04be
000001d0: 6531 b43d 905b 6a3e 5d36 3c3e 2b0e f73b
000001e0: 7bd8 dbbd 20d4 2bbe a83c 223d c1ea 363e
000001f0: 88c3 cfbd eefe 633b ee15 4fbc 556a 6c3d
00000200: 0af7 4f3e 78b0 8fbd b85a c23d 6c63 b83e
00000210: 2500 8fbe c2b4 7e3c dd21 a23d af20 92be
00000220: ded3 87bd c537 85bd 75d6 a93d 0660 a53e
00000230: fb3d c8bd 06cc 533d ddd7 f23d 13db c93d
00000240: c79f 30be 0bea a73d 1eb3 f83d 0836 813e
00000250: ae58 67be b927 b5ba 1ac4 5fbe 6551 3fbc
00000260: 9ef5 e5bd 2ecf 06be fbe7 323c 4825 a5bd
00000270: aa6f b93c 65cb b93d 3dbf 3c3d 4c14 623e
00000280: 4ff4 aa3e 7efb 013b 643a f4bc e594 d03d
00000290: 3eff 9ebe 4d41 fdbc 528a 9dbe e131 3e3e
000002a0: bb7a a0bd b943 d73d 91e4 8a3e 0e14 8b3e
000002b0: 2a0c 253c 7f19 bbbe bcca cfbd adc0 af3d
000002c0: 96a1 2bbc 764f 9e3d c299 e93d e930 163e
000002d0: 8efd 213e 2b07 7cbe 0029 e03d d8e2 ac3d
000002e0: 3e98 32bc f26f 31bd 3c29 6d3d 2880 253e
000002f0: 384d b13a fd75 ae3d 60e8 e73d d9e8 8c3c
00000300: 536a 353e d40c 823e 2412 ba3b 2bb0 c43d
00000310: 6114 a1bd fd81 2c3d 3f37 f2bd 3cb9 e83d
00000320: 9cff d53e 7c41 53be ec11 2b3e 02be bfbd
00000330: 015f b4be 43cd d83d b081 cd3d 3276 0bbd
00000340: c231 c33d 13e8 8b3e 04a0 e43d e684 0d3c
00000350: 298f 893d 5573 77be bd7b 113e cd73 41bd
00000360: 304a 3ebd 4fcd b33c 89a7 2cbe 379d 95be
00000370: 10f4 8c3e 7c8d 8f3d 8f3a cd3d 75db a23b
00000380: 4e10 27be 6369 913d 7543 243e 1ae6 98be
00000390: bc09 aa3c e607 9d3c bb2c 05be 98a2 30be
000003a0: 0980 acbc 3b76 193a 6b9f 93be 2391 06bd
000003b0: f6c3 d7bd eed7 3e3c 7ab6 95be 35a5 023e
000003c0: f538 433e 2bc9 07be 29b4 91bd 34c9 733e
000003d0: 8837 5f3e aea2 aabd 5cf6 5dbe 4b96 043e
000003e0: e735 6a3e 1b83 4bbe 1c68 c83e 4cca 0f3e
000003f0: 55ef b6bd 6b8f 89bd 7a38 b9bd 3f79 843d
-0.03253806 0.25910306 0.04824785 -0.09413646 -0.20548168 0.11009162 0.047235325 0.14686058
0.074665084 -0.20169786 0.38905838 -0.14005035 -0.045756854 -0.10560451 -0.091108255 0.062010117
-0.07809032 -0.15839905 0.17544098 -0.15423249 -0.13729113 0.10779818 -0.114070505 0.1374844
0.053110413 0.032925673 0.21262312 0.101091415 0.07928935 -0.1934094 -0.227222 -0.3364382
0.10747332 0.24872145 -0.15069266 -0.037264924 0.14987616 -0.18980129 -0.2740574 0.10972086
-0.047343303 0.05262333 0.14222308 -0.20812626 0.04914679 -0.07875343 0.053671006 0.055529825
-0.104433164 -0.1863138 0.018052677 -0.006005342 -0.18961929 0.2892094 -0.08162828 -0.17266081
-0.16493672 -0.0134104 -0.049798045 0.15836075 0.24939899 -0.27171972 0.28293735 -0.31196892
-0.115856245 0.015110363 0.1735395 0.17175856 -0.20448406 0.21424255 -0.20407416 -0.1791794
-0.008823875 -0.08851213 -0.16906728 -0.09993742 0.08877382 -0.033123247 -0.25744584 0.40769336
0.13871098 -0.006801348 -0.03495235 -0.26826838 0.020634636 0.022237098 0.28140786 -0.005535194
0.022407621 0.0027595789 0.08842685 -0.15031447 -0.22027701 -0.012333525 0.07467537 0.31591788
0.30526164 -0.30050737 0.0006153563 0.017599864 -0.18375154 -0.20104907 0.1700336 -0.031943932
0.26210028 -0.19858783 0.17713603 -0.21201716 0.10467097 -0.19765703 -0.105701506 -0.31166556
-0.03951242 -0.086424775 0.1880632 -0.12905921 0.08798484 0.22886491 0.18380113 0.0075395308
-0.1073465 -0.16780138 0.039608628 0.17862989 -0.101447165 0.00347894 -0.012639506 0.057718594
0.20309082 -0.070160806 0.094899595 0.36013353 -0.27929798 0.015546026 0.07916615 -0.2854056
-0.06632207 -0.06504778 0.082928576 0.32299823 -0.09777447 0.051708244 0.11857579 0.09856238
-0.1724845 0.08198937 0.12143539 0.25236535 -0.22592422 -0.0013821042 -0.2185215 -0.011677121
-0.112284884 -0.1316497 0.010919566 -0.080637515 0.022636253 0.090719976 0.046080817 0.22078055
0.33389518 0.001983374 -0.029813 0.101846494 -0.3105411 -0.030914927 -0.30769593 0.18573715
-0.07835909 0.10510964 0.27127507 0.27163738 0.010073701 -0.3654289 -0.101460904 0.08581672
-0.010475537 0.0773 0.1140628 0.14667095 0.1581938 -0.2461211 0.1094532 0.084417045
-0.010900555 -0.04331965 0.057900652 0.16162169 0.0013527041 0.08518598 0.11323619 0.017200874
0.1771634 0.25400412 0.005678432 0.09603914 -0.07865215 0.042116154 -0.118269436 0.11363456
0.41796577 -0.20630449 0.16706055 -0.09362413 -0.35228732 0.105860256 0.100345016 -0.034048267
0.09530975 0.27325496 0.11163333 0.0086376425 0.06716759 -0.2416509 0.14207359 -0.047229577
-0.04645747 0.021948485 -0.16860785 -0.29221508 0.27529955 0.07009408 0.10020935 0.004970009
-0.16314813 0.07100179 0.16041358 -0.29863054 0.020756595 0.019168805 -0.13005345 -0.17249525
-0.021057146 0.00058541045 -0.28832564 -0.032853257 -0.105354235 0.011648161 -0.2924078 0.12758334
0.19064696 -0.13260333 -0.07114441 0.23807222 0.21798527 -0.0833181 -0.2167601 0.12947957
0.22872125 -0.19874232 0.3914193 0.14042014 -0.08932368 -0.06716808 -0.09043975 0.06468438

network_body._body_endoder.seq_layers.2.weight f4 [256, 256]
00000000: 1ec6 083e 5992 b3bd 615b d63d 7aa8 8d3e
00000010: 0162 52bc 4e74 88be 0728 ce3c e253 a1be
00000020: 36d9 49bc e73d 1b3e aa8c 333e a039 cf3c
00000030: 3f91 ed3d 2f46 f3bd 4061 a93d 054a 8abd
00000040: 4ec2 a5be 0000 d5bd bbc9 4fbe 6c52 0f3e
00000050: 63d1 61be f6a5 d4bc 5fe6 d73c 2aba af3d
00000060: 7012 03be 33a8 cf3d 9666 d63d c001 b9be
00000070: 5191 8a3c 5c18 e3bd 857c 06bf 3ba1 d03c
00000080: 5ad9 663d 91d4 1cbd 3fd9 ccbd ee94 523d
00000090: 6b14 023e 893f 6c3a 7be4 f9bd b93f 58be
000000a0: b1ba 51bd b193 06be 2db9 a9bd 69eb 1b3d
000000b0: c3be eb3d 8ed0 bf3d 53c9 c13d e425 6abe
000000c0: 6249 47bd 46b9 50bd fdc7 d7bd f736 b7be
000000d0: c43a d2bc 5a31 f7bd ac25 d43d 3d86 0dbe
000000e0: 55a9 34be eb4e 80be 5974 e1bc 0ebc 543e
000000f0: 0635 aa3c 80b2 de3d 029c f43d 8fc9 a3bc
00000100: 0f1d 50be 9729 0b3d 18e8 db3d b9e6 75bc
00000110: 5d58 ddbc 6f80 65be edb0 bebd 7f1e b33d
00000120: 8fb5 2cbe 4852 94bd 2a11 32bd 90f1 62bc
00000130: 39ae d5bd 37b3 e6bd 833e 383d 20f9 4d3e
00000140: f2ee a2bb 71bc 8e3b 530a 1fbc c754 babd
00000150: eae1 98bd 3d63 84bd 6f31 37be 724e 27ba
00000160: 62ce 94bd 5639 893d f95a 8c3d eea8 09bd
00000170: 69d2 f2bd ed55 f23d 55ad 0b3e 15cb e4be
00000180: ac26 bdbc 987f f2bd 6c19 893c 87b9 b9bd
00000190: 2007 9dba 214f 35bd 78c0 92be 9738 d7be
000001a0: 9276 5a3d d18c 213e 7d1d c7bd 57fe f93b
000001b0: 44f3 22be 4af8 6cbe 72aa e9be b172 373e
000001c0: 318b 093d 78a3 86be cbd3 d2be 7a37 853c
000001d0: 95af c6bb dc89 47bb 15f1 e8be 6550 7c3d
000001e0: 523b 34bd ff19 cd3d 03df 873d 464e a6be
000001f0: 04f3 edbd b520 c7bd fca5 c0be 95cb b0bd
00000200: 9da1 09bd e55a 813c 77a4 39be caa7 833d
00000210: 4b91 73be 425a 5c3b 119c aabe 6d24 46bd
00000220: 497d ddbd c4ea 903d ece9 663e 40f7 123e
00000230: 6474 08be 0af4 ba3c 5101 acbe 93b0 aabc
00000240: e5a5 ea3b 075e 2e3d ac8d 323e eb88 2dbd
00000250: 1807 06be dffa acbe 73d8 cbbd c6b6 fbbd
00000260: 6f43 333d 713e cabb a6ab bebd 1c8f 0abe
00000270: 0580 1b3d 7276 51be 3956 09bf 8ee2 8fbe
00000280: 1fe2 f83d 8bd4 303e dc3f 8ebc 21fd 88bb
00000290: 6b11 6ebe 9b36 6c3e cb88 63be dcd3 e1be
000002a0: fdb8 39bd 7259 1a3c 32cc 93bd 4baf 1f3c
000002b0: 8a80 fbbd 2105 e0bd 9d39 9cbd 6255 873d
000002c0: 7217 9a3d 811b 8d3d d614 58bd cedf 91be
000002d0: 4704 9ebd e178 37be 2591 733d d8b4 9cbe
000002e0: ec80 cd3d c2a2 083e b44c fabd 0ff3 183e
000002f0: 257d 00be 6252 01bd 6161 6dbe f99a 5d3e
00000300: ca3d 3d3d b6f7 243d c005 783d 15fb ccbe
00000310: d6d3 153e f3fd a1bd a445 c0bd 8807 083e
00000320: f0b3 26be 8dcb 19bf cf2d c8bd 073f adbe
00000330: 58c8 86be dcf2 78be e882 4c3e 3bff 953d
00000340: 4003 b2bd 258f b7bd c993 26be c3bc cf3c
00000350: dd3d 40bd 32e0 bbbd c510 56be 9127 19be
00000360: 9974 00bf c8dc d93c d68b aabd 7ea6 74be
00000370: 20d0 343e adc3 e8bd 9631 133e 457a 8dbe
00000380: 46fb 34be 179d 623e 57a1 3c3d d1db 3ebe
00000390: 9fe6 a63d 9942 fe3d e4b9 01bf fabb 71be
000003a0: 8c42 e1be 3e7c 403d 7fde b0be 5970 90be
000003b0: ab86 85be 7577 84be 0cd7 043e 8e12 e13b
000003c0: 2d21 efbd 685d 20be 5348 4d3d f48d 11be
000003d0: 836b 54be e5c3 2dbe da6b d63d 1ab9 eabd
000003e0: a37c 96bd acb5 c7bd 346c ff3d 115f e0bd
000003f0: 3585 9abd e6b8 5c3e d845 803d c73b 4dbe
0.13356826 -0.08768148 0.10466648 0.276676 -0.012840749 -0.26651233 0.02516557 -0.3150931
-0.0123198535 0.15160333 0.17534128 0.025296032 0.11599969 -0.11878621 0.08270502 -0.06752399
-0.32374805 -0.104003906 -0.20291798 0.13996285 -0.22052531 -0.025958043 0.026354967 0.0858043
-0.12800002 0.10139503 0.104687855 -0.36134148 0.016914995 -0.110886306 -0.5253375 0.025467506
0.056359626 -0.038288657 -0.10002374 0.05141156 0.12703101 0.0009012153 -0.12201782 -0.21118058
-0.051203433 -0.13142277 -0.082872726 0.0380663 0.11510994 0.093659505 0.09462228 -0.22866017
-0.048653968 -0.05095794 -0.105361916 -0.35784122 -0.025662787 -0.1206996 0.10358748 -0.13820739
-0.1764272 -0.2506021 -0.0275213 0.20774862 0.020777237 0.1087389 0.11943819 -0.019993572
-0.20323585 0.03397521 0.10737628 -0.015008622 -0.027019674 -0.22412275 -0.0931109 0.08746051
-0.16866134 -0.072422564 -0.0434734 -0.013851538 -0.10433621 -0.11264651 0.04498149 0.20114565
-0.004972332 0.00435596 -0.009707051 -0.09098201 -0.07464965 -0.06464241 -0.17889951 -0.00063822337
-0.07265927 0.06700389 0.06853289 -0.03360837 -0.11856539 0.11832795 0.1364034 -0.4468619
-0.02308973 -0.11840743 0.016735755 -0.0906859 -0.0011980273 -0.044264916 -0.28662467 -0.42035362
0.053335734 0.15776373 -0.09722421 0.0076291966 -0.15913111 -0.2314159 -0.45637852 0.17914845
0.03358001 -0.26296592 -0.4117721 0.016261805 -0.0060634115 -0.003044716 -0.4549643 0.061600108
-0.044001885 0.10014724 0.06634333 -0.32481593 -0.11618617 -0.09723035 -0.37626636 -0.0863258
-0.033601392 0.015790412 -0.18129145 0.064284876 -0.23785894 0.0033623134 -0.33322194 -0.048374582
-0.10814912 0.07076028 0.22550172 0.14352131 -0.1332565 0.022821445 -0.33594754 -0.02083615
0.0071608895 0.04257014 0.17436856 -0.042366903 -0.13088644 -0.3378515 -0.09953394 -0.12290721
0.04376548 -0.0061719944 -0.09310083 -0.13531154 0.037963886 -0.2045534 -0.5364719 -0.28102535
0.12152504 0.17268579 -0.017364435 -0.004180566 -0.23248832 0.23067705 -0.22220151 -0.44106948
-0.045342434 0.0094207395 -0.072166815 0.009746383 -0.12280376 -0.10938478 -0.07628176 0.06608082
0.07524003 0.068900116 -0.052754246 -0.28491062 -0.077156596 -0.17917205 0.059464592 -0.30606723
0.100343555 0.13343337 -0.12221661 0.1493647 -0.12547739 -0.031572707 -0.23181678 0.21641149
0.046201505 0.040275298 0.06055236 -0.4003531 0.1463159 -0.07909765 -0.09388283 0.13284123
-0.16279578 -0.6007622 -0.09774362 -0.3383715 -0.26324725 -0.24311393 0.19971812 0.07324072
-0.08692026 -0.089628495 -0.16267313 0.025358563 -0.046933997 -0.09173621 -0.20904835 -0.149565
-0.50177914 0.026594535 -0.08327453 -0.23891637 0.17657518 -0.11365447 0.14374384 -0.27632347
-0.17673978 0.22130238 0.046052303 -0.18638541 0.08149456 0.12415046 -0.5067427 -0.23606864
-0.43996084 0.046993487 -0.3454475 -0.28210714 -0.26079306 -0.25872388 0.12972659 0.006868667
-0.1167625 -0.15660632 0.050117802 -0.14214307 -0.20744137 -0.16969259 0.1046979 -0.114610866
-0.07347991 -0.09751448 0.1247181 -0.109556325 -0.075449385 0.21554908 0.06263322 -0.20042334

network_body._body_endoder.seq_layers.4.bias f4 [256]
00000000: b35c f6bc c088 a1bc 186a 023d 1cf7 633d
00000010: 40e8 a1bc b679 d1bd f67c 26be 27fd 26bc
00000020: 96db 53bd 9aa8 e2bd 9eda 02bd 19a6 4cbe
00000030: bf57 a7bc 6fce e8bc ad46 353c 0ca5 893d
00000040: 7fd3 ba3d 8d52 94bd 1b71 27bd 0416 fdbd
00000050: 44f2 e6bd 19cd 17be 45e6 17bd 9b2a 51be
00000060: 8a58 21bd 5f85 c8bc 0afa 813d 9020 fb3c
00000070: ef04 eb3b 0cb7 93bd 0344 69bd 7d05 40bd
00000080: 20d8 35bd aa6f 0f3c f36e 873d 8733 4abb
00000090: 56d9 90bd 7da2 8cbd d017 7e3c 8e95 e63b
000000a0: 5201 2c3e 2d1c 9c3c 6dcc fabc aefe 6cbe
000000b0: c3a5 3ebd bcba 54be db29 e0bd dbfb b6bc
000000c0: 20d7 66bd ee40 bcbd f945 4c3c c4f7 78bd
000000d0: 5db4 b0bc be7f 1dbd 7be7 cabd 5a80 c9bc
000000e0: 0121 18bc 7f11 353c f05e 633d f871 49bd
000000f0: 5373 5bbd fb76 79be 1d08 fbbc 661e b63d
00000100: 4626 5c3c e6ad 67bc 04cc 1d3e 8318 6fbd
00000110: a26d 4ebe efb6 b13c 41d0 63bb e9b4 a2bc
00000120: 7dd9 e4bb 0a50 23be 4045 5bbd 5da2 a4bc
00000130: 35d3 34bc f652 34bd 2e8f 8bbc 1027 32bc
00000140: 5249 dc3b cdf1 a53d 67c2 dabd 3ce7 95bd
00000150: d0dc b3bd 5595 903d 8f9b 973d eede a53c
00000160: 0055 afbd 1b4f 0dbe a4bd 77bd 1d22 5b3a
00000170: ca4f 0a3e 2b50 adbc a03c 04bd 07f9 b8bd
00000180: 7c4d 06be 2b64 5d3c fdfc 06be 0279 5fbc
00000190: fdf7 303d f9ae 97bd 0942 813c fa63 1ebc
000001a0: 5a65 35be 280b eabd 4cc5 8cbd a907 903d
000001b0: b17f 183e 1f23 65bd b8b7 a3bd a533 f1bd
000001c0: cb23 9dbc cff0 f5bd dc2e 553d 64d0 0cbd
000001d0: c2d0 7fbd 0e79 84bd 8748 babd 9c95 24bd
000001e0: 5562 5c3d 00cc 44bd 9d89 d73b 7623 793d
000001f0: 7c1a 163d 20dc 29bd 4166 08bd 5b2b 07bd
00000200: 5d49 51bd 8aa5 0c3d 3bfd 82bd 01f4 5dbd
00000210: 76aa 883d bb58 48bd b9d8 62bd dd87 9dbd
00000220: 9649 86bb efd9 8bbd 63b0 8dbd d98e 52bd
00000230: ae0c f0bd fcaa 5bbd b71f 28bc d74c 87bd
00000240: f303 a4bd 85ff 6c3d 29ed e5bd 8840 f7bb
00000250: ff19 c33c b661 6c3d b858 b1bd 87cd ccbd
00000260: 415d a13c a2ad 9dbd da6f acbd 2401 37be
00000270: 57a0 8d3d 3748 6dbd a2d8 223d 2e8b debc
00000280: c2c1 53bd 08f0 093e 467e 3f3d b592 d9bd
00000290: ffd9 aebd 7d4d 33be 4967 69bd 1ef6 30bd
000002a0: 6fc9 b5bd 88d9 293c 331d 8c3c 2bf2 bbbc
000002b0: 37c5 f6bc 4a49 23bd 726b 913b 35a0 bdbd
000002c0: bd93 adbd b444 53bd 96ad 563d 76ed a03d
000002d0: 0d34 96bc fcda 3b3b a1da 423d ba5e 23bb
000002e0: b5e7 82bd 6476 11bd 252f 433c 2dfc d53c
000002f0: 6327 43be d44d 2dbe 3ccd 3fbe b50b 96bc
00000300: d4a5 d33d ba4b 203d 70e3 703d 0b62 9dbd
00000310: a862 7a3d 4e51 9dbd 0969 e03d 6c2b bcba
00000320: be32 c6bc 1617 353e 2e5c 7dbd dbe9 a3bd
00000330: e5c2 c4bd fdf6 083d cd15 ae3c fe2b 4ebe
00000340: 39b4 bbbd 6a1c a53d ff15 1a3b a1a1 35bd
00000350: 1337 bdbd 3567 f13c 31c4 b4bd 657f 3039
00000360: 6f0e 63be 910b 31bd c04b 293c eeff 07be
00000370: e653 58bd ebd0 f43c e74c 28be 2ca5 593c
00000380: 75b3 c8bd e7d0 72bd a826 533c 82aa 43bd
00000390: 9cea 223c ac74 06bd 3bd2 0ebc e4fe 07bd
000003a0: 06bc 95bc 96a8 cabd 4e0c 01be baf0 00be
000003b0: 1061 a3bd 62ec 013c c8c1 d1bd eb7c 2dbd
000003c0: cb20 b43d 9f61 0fbe dd40 b6bd 5317 283e
000003d0: cd06 96bc f770 b8bd cb5d 08be 9c93 f43c
000003e0: 2075 97bc 1be6 8fbd dd87 1c3d 90f1 f9bc
000003f0: 3453 cb3b 601f bcbd fe92 e2bc 34e1 62bd
-0.0300735 -0.019718528 0.03183946 0.055655584 -0.019764066 -0.10228293 -0.16258606 -0.010192192
-0.051723085 -0.110673144 -0.03194677 -0.19985236 -0.020427583 -0.028418748 0.011064214 0.06720933
0.09122371 -0.07242308 -0.04087935 -0.12357715 -0.11276677 -0.14824332 -0.037084837 -0.20426409
-0.039391078 -0.024477659 0.06346519 0.030655175 0.007172219 -0.07212648 -0.056949627 -0.046880234
-0.044395566 0.00875465 0.06612959 -0.0030853467 -0.070727035 -0.0686693 0.015508607 0.0070368713
0.16797379 0.019056404 -0.030615056 -0.23144028 -0.0465448 -0.20774359 -0.10945483 -0.02233689
-0.056357503 -0.09192072 0.012467855 -0.060783163 -0.021570379 -0.038451903 -0.09907433 -0.024597336
-0.0092852125 0.011051535 0.05551046 -0.049180955 -0.05357678 -0.24361794 -0.030643517 0.08892517
0.0134368595 -0.014140582 0.15409857 -0.058372986 -0.20159009 0.021693675 -0.003476158 -0.019861655
-0.0069839344 -0.15948501 -0.05353284 -0.020096952 -0.011036684 -0.04402443 -0.017036047 -0.010873571
0.0067226076 0.081027605 -0.106816106 -0.07319495 -0.08782351 0.07059733 0.07402717 0.020247903
-0.08561134 -0.13799708 -0.06048359 0.000835927 0.13507 -0.021156391 -0.03228438 -0.09031873
-0.13115495 0.013512651 -0.13182445 -0.01363969 0.04320525 -0.0740642 0.015778558 -0.009667391
-0.17714444 -0.11427909 -0.06873569 0.07032711 0.1489246 -0.055941697 -0.07994026 -0.117774285
-0.019182106 -0.12008821 0.05204664 -0.034378424 -0.062454946 -0.06468402 -0.09095865 -0.04018174
0.053804714 -0.048046112 0.006577684 0.060824834 0.03664635 -0.041469693 -0.033300642 -0.03300033
-0.051095355 0.034337558 -0.06395956 -0.05418778 0.06673138 -0.048912745 -0.055382464 -0.076919295
-0.0040981276 -0.06828677 -0.06918409 -0.05140576 -0.117211685 -0.05362986 -0.010261468 -0.06606453
-0.08008566 0.05786087 -0.11226875 -0.0075455345 0.023816107 0.057710372 -0.086595 -0.10000139
0.019697787 -0.076991335 -0.084197715 -0.17871529 0.06915348 -0.057930198 0.03975738 -0.027165975
-0.051698454 0.13470471 0.046751283 -0.10623685 -0.08537673 -0.17510028 -0.056983266 -0.043203466
-0.08876311 0.010366805 0.017103767 -0.022942623 -0.030123336 -0.039864816 0.0044378573 -0.09259073
-0.084754445 -0.051579192 0.05241164 0.07857792 -0.018335367 0.002866446 0.047571782 -0.0024928288
-0.06391851 -0.035513297 0.011913096 0.026121223 -0.19057994 -0.1692422 -0.18730634 -0.01831613
0.103343636 0.03913472 0.05881065 -0.07684716 0.061129242 -0.07681523 0.10957534 -0.0014356202
-0.024194118 0.17684588 -0.061855488 -0.08003589 -0.09607486 0.03343867 0.02125063 -0.20133969
-0.09165234 0.0806206 0.0023511646 -0.044343594 -0.0923902 0.029468158 -0.08826483 0.00016832126
-0.22173475 -0.04322392 0.010333002 -0.13281223 -0.052814387 0.029884776 -0.16435586 0.013284009
-0.09799854 -0.059281256 0.012887634 -0.04777003 0.009943631 -0.03282611 -0.008717115 -0.033202067
-0.018278133 -0.098954365 -0.1260235 -0.1259183 -0.079774976 0.007929893 -0.10242039 -0.04235546
0.08795317 -0.14002083 -0.088990904 0.16415147 -0.01831379 -0.09005921 -0.13317029 0.029855542
-0.018488467 -0.07026311 0.038215507 -0.030510694 0.006204987 -0.09185672 -0.027657982 -0.05539055
